Bank-1/global_model.pth (torch, 20645 bytes, 15 tensors)

network.0.weight f4 [64, 7]
0	0x3d7b5099	0.06135616
1	0x3ded7490	0.11594498
2	0xbe39a320	-0.18128633
3	0x3e8cd224	0.27504075
4	0xbe0062ed	-0.12537737
5	0xbcb5836c	-0.022157393
6	0xbe47a7db	-0.19497626
7	0xbddad30e	-0.10684787
8	0xbe1866d4	-0.14882976
9	0xbbd5c35e	-0.0065235337
10	0xbe77bee0	-0.24193907
11	0x3e0d39b2	0.1379154
12	0xbe8544d8	-0.26029086
13	0x3c0e1a10	0.008673206
14	0xbe0abc2c	-0.13548344
15	0x3da7a508	0.08185774
16	0x3d89ee17	0.06734865
17	0xbd097f4f	-0.033568677
18	0x3db29b56	0.08721034
19	0xbe8af940	-0.27143288
20	0xbe1e5a29	-0.15464081
21	0xbd17aae3	-0.037028205
22	0xbafe9288	-0.0019422332
23	0xbe6f5cfe	-0.23375317
24	0x3db98a44	0.09059575
25	0x3dcb767c	0.099347085
26	0x3e121060	0.14264059
27	0x3eaa8036	0.33300942
28	0xbea63d64	-0.32468712
29	0xbe52f917	-0.20602833
30	0xbdf29ec4	-0.118466884
31	0x3e3faaf7	0.18717562
32	0x3e4258d1	0.18979193
33	0x3dc6a260	0.09698939
34	0xbe0a2834	-0.13491899
35	0x3d255098	0.040360063
36	0xbe699e3b	-0.22814266
37	0xbe7a2823	-0.24429373
38	0x3eb111e0	0.3458395
39	0xbe4c1694	-0.19930488
40	0x3dc5daea	0.09660895
41	0x3e3fbf46	0.18725309
42	0xbdaf5bf6	-0.08562462
43	0xbe0ef5c3	-0.13960938
44	0xbb68e4c8	-0.0035536755
45	0xbd1b036f	-0.03784507
46	0xbe6cf9c6	-0.23142156
47	0x3d4f3f53	0.0505975
48	0xbca05005	-0.019569406
49	0x3d2245a1	0.039617185
50	0x3d4447ec	0.047920153
51	0xbd025c64	-0.03182639
52	0x3e9ab2b2	0.3021446
53	0x3e48c424	0.19606072
54	0x3da9eddc	0.08297321
55	0xbe8e3d12	-0.27780968
56	0xbe42ca1e	-0.19022414
57	0xbe00b502	-0.12569049
58	0x3d280e1a	0.041029073
59	0x3dc5b867	0.096543126
60	0xbe26c9b5	-0.16287883
61	0xbe0397e8	-0.12850916
62	0xbe51ca5c	-0.2048735
63	0xbdfb4422	-0.12268855
64	0xbe66460a	-0.22487655
65	0xbe06a37c	-0.13148302
66	0xbd5c3cbe	-0.053768866
67	0x3d5ef4a4	0.054432526
68	0x3dcb0710	0.099134564
69	0x3ac5b0c6	0.001508259
70	0x3da16994	0.078814656
71	0x3b834aa0	0.0040066987
72	0x3cdd4078	0.02700828
73	0xbda7c6a3	-0.08192184
74	0xbe5d970f	-0.21639656
75	0xbe84c538	-0.25931716
76	0x3e1ce6f0	0.1532247
77	0x3e57f4a3	0.21089415
78	0x3dc4dfd6	0.09613006
79	0xbe63efc8	-0.22259438
80	0x3dcb5b94	0.099295765
81	0x3e16c051	0.147218
82	0x3cf036a8	0.029322937
83	0x3dd11bd1	0.10210384
84	0xbd5360d7	-0.051606026
85	0x3cb98bba	0.022649635
86	0x3dd77fbc	0.1052241
87	0x3e637b12	0.22214916
88	0xbd0d11e5	-0.034440894
89	0x3d7d9cf1	0.06191725
90	0xbe13880f	-0.14407371
91	0x3e43b484	0.1911183
92	0x3d4b6f5e	0.049666755
93	0x3e2cbe3a	0.1686944
94	0xbcb527b5	-0.02211366
95	0xbdd0683e	-0.101761326
96	0xbe9a8474	-0.3017918
97	0x3de04eb4	0.109525114
98	0xbe8ddf58	-0.2770946
99	0xbe006188	-0.12537205
100	0xbe39e9bc	-0.18155569
101	0x3e03a0d4	0.1285432
102	0x3d9c1b29	0.07622368
103	0x3d8f7860	0.070053816
104	0x3d865b2d	0.06560359
105	0x3d875aba	0.066091016
106	0xbc8a7f95	-0.016906539
107	0x3c00c359	0.0078590745
108	0xbe080574	-0.1328333
109	0x3dfc8e16	0.12331788
110	0x3e0db7d8	0.13839662
111	0xbe40b708	-0.18819821
112	0xbd68d712	-0.056845732
113	0xbdbee815	-0.0932161
114	0x3d3cfe86	0.04614117
115	0xbcc32236	-0.023820024
116	0x3d9a813f	0.07544183
117	0xbd2e8120	-0.042603612
118	0x3cf74aae	0.030186977
119	0x3c967b96	0.018369477
120	0x3d8f89ee	0.0700873
121	0x3e2eb410	0.17060876
122	0xbe7c7124	-0.24652535
123	0x3dc75e92	0.09734835
124	0xbe3023ef	-0.17201208
125	0xbcbf56bf	-0.023356793
126	0xbe174385	-0.1477185
127	0x3c3280ff	0.010895013
128	0x3d452ed6	0.04814037
129	0x3d164d11	0.03669459
130	0x3d4d6766	0.050147437
131	0x3e561cb6	0.2090939
132	0xbda968f2	-0.0827197
133	0xbd966ba0	-0.073447466
134	0xbe848ed1	-0.2589021
135	0xbd9788ca	-0.07399137
136	0x3e2cd988	0.16879857
137	0xbd262755	-0.040564854
138	0xbd90260c	-0.07038507
139	0xbd6a048a	-0.057133235
140	0x3e845e56	0.25853223
141	0xbc4dfd50	-0.012572601
142	0x3d265d54	0.04061635
143	0xbda58558	-0.08082074
144	0x3da2aade	0.079427466
145	0x3decabaa	0.1155618
146	0x3dbb1818	0.09135455
147	0xbe8c8ca8	-0.27451062
148	0xbe95ec6a	-0.29281932
149	0xbe2056c9	-0.15658106
150	0xbd829e41	-0.06377841
151	0x3c6c8d64	0.014438007
152	0x3dfd2d64	0.12362173
153	0x3e340e32	0.1758354
154	0xbe23761f	-0.15963028
155	0x3ddff908	0.10936171
156	0xbcd0cc16	-0.02548794
157	0x3e8ceb1c	0.27523124
158	0xbcb07dcd	-0.021544361
159	0x3dabee8e	0.0839511
160	0xbd7ae71e	-0.061255567
161	0xbc4b2dd0	-0.012401059
162	0x3e65ac69	0.2242905
163	0x3e3f73f7	0.18696581
164	0xbe06aa9a	-0.13151017
165	0x3cdbc489	0.026827114
166	0x3dc7ac8c	0.097497076
167	0x3e098994	0.13431388
168	0x3e9730a4	0.29529297
169	0xbe855533	-0.26041564
170	0x3e36ead8	0.17863023
171	0xbe519993	-0.2046874
172	0x3d98aa7c	0.07454392
173	0x3ddca08e	0.10772811
174	0xbcae0562	-0.021242801
175	0xbd548b10	-0.051890433
176	0x3e125c8a	0.14293113
177	0x3dcfa3ee	0.10138689
178	0xbe94ec0d	-0.29086342
179	0x3e08e7d6	0.13369688
180	0xbde4fd2e	-0.11181103
181	0x3e3b776a	0.18307272
182	0xbe9d23e0	-0.30691433
183	0x3dcbd502	0.099527374
184	0x3e2faf06	0.1715661
185	0xbe31aada	-0.17350331
186	0x3d1fb0e4	0.038987055
187	0xbe912cc8	-0.28354478
188	0xbc4257a6	-0.011861717
189	0x3e7e0dc4	0.24809939
190	0x3e38b188	0.18036473
191	0x3e768918	0.24075735
192	0x3ea849a8	0.32868695
193	0xbe2ed278	-0.17072475
194	0x3bed0e66	0.0072343824
195	0xbdf9d78c	-0.121993154
196	0xbe26cb5c	-0.16288513
197	0xbe8136c2	-0.2523709
198	0xbe14b87a	-0.14523497
199	0xbd0a2595	-0.033727247
200	0x3e4f60d8	0.20251787
201	0x3b24059c	0.0025027758
202	0x3d36e834	0.04465504
203	0x3d8f3606	0.06992726
204	0x3eaec584	0.34135067
205	0xbcb2e024	-0.021835394
206	0x3d3db86a	0.04631845
207	0x3d928052	0.071533814
208	0x3e0f8d9a	0.1401886
209	0xbdf7cdcd	-0.120998
210	0x3eaddf14	0.33959258
211	0x3dd700f0	0.10498226
212	0x3e4dfdce	0.2011635
213	0x3e1948d8	0.14969194
214	0x3e7713c6	0.24128637
215	0xbdb85de0	-0.0900228
216	0x3c875850	0.016521603
217	0x3dcaacc8	0.09896237
218	0x3e5eff86	0.21777162
219	0x3dfc05b5	0.12305776
220	0x3ce8c120	0.028412402
221	0xbe684b55	-0.22684987
222	0xbd675c48	-0.05648449
223	0x3c89e156	0.016831081
224	0xbe218c6a	-0.1577622
225	0xbe67779f	-0.22604226
226	0x3ce99f43	0.028518325
227	0xbd8ac118	-0.06775111
228	0xbe0c7490	-0.1371634
229	0x3dad59c0	0.08464384
230	0x3e33006a	0.17480627
231	0xbb187df8	-0.0023268443
232	0xbe16c284	-0.1472264
233	0xbe53dc1a	-0.20689431
234	0x3e8bdda2	0.2731753
235	0xbe3a8412	-0.18214443
236	0xbdca2e56	-0.09872119
237	0xbe23b94e	-0.15988657
238	0xbe0d732f	-0.1381347
239	0x3e0afe72	0.13573626
240	0xbe6b6d1a	-0.22990838
241	0xbdf79015	-0.12088028
242	0x3ea8d0a0	0.32971668
243	0xbb80d29e	-0.0039313575
244	0xbd0f1b40	-0.034938097
245	0xbd259924	-0.04042925
246	0x3e48335e	0.19550845
247	0x3c898e7c	0.016791575
248	0xbddc55ec	-0.10758576
249	0x3c4ecd5a	0.012622202
250	0xba8108c4	-0.0009844531
251	0x3e74a3a2	0.23890546
252	0x3e17f61a	0.14839974
253	0xbe08848c	-0.13331813
254	0xbdf6c246	-0.120487735
255	0xbe0a4b54	-0.13505298

network.0.bias f4 [64]
0	0x3b3df8b0	0.002898734
1	0x3def8623	0.116955064
2	0xbe587c34	-0.2114113
3	0x3d51e992	0.05124814
4	0x3e53478e	0.20632765
5	0x3db51f10	0.08843815
6	0xbe8db4aa	-0.27676898
7	0x3df1de6e	0.11810003
8	0xbd00b2ee	-0.03142064
9	0x3d954da6	0.07290201
10	0xbd4ca864	-0.049965277
11	0x3e947731	0.28997186
12	0xbde9094c	-0.11378726
13	0xbe0c4789	-0.13699163
14	0x3c61548d	0.013753069
15	0xbda9e100	-0.082948685
16	0x3e1a084f	0.15042232
17	0x3e87f0af	0.26550815
18	0xbe1efd0d	-0.15526219
19	0xbe561416	-0.209061
20	0x3e4a2f94	0.19744712
21	0xbe6286fe	-0.22121808
22	0x3de08b39	0.109640546
23	0xbe0e2350	-0.13880658
24	0xbdc13f54	-0.09435907
25	0xbb6daa7b	-0.0036264944
26	0xb8b62db9	-8.686953e-05
27	0x3e28e788	0.16494572
28	0x3d4f3b65	0.050593752
29	0xbbab901f	-0.0052356864
30	0xbd6550ac	-0.055985138
31	0xbdb82722	-0.08991839
32	0xbdc6db26	-0.09709768
33	0x3e23a53e	0.15981004
34	0x3de19459	0.11014623
35	0xbc0acc77	-0.0084716
36	0xbcda60ac	-0.026657425
37	0xbcaccc65	-0.021093557
38	0x3dd4646e	0.10370718
39	0xb9b00bcb	-0.00033578122
40	0x3e26f962	0.1630607
41	0xbc62a09c	-0.013832238
42	0xbd8d384a	-0.06895502
43	0xba53c15b	-0.00080778234
44	0x3e37721c	0.17914623
45	0xbc52b690	-0.012860909
46	0xbd830bde	-0.06398748
47	0x3d4b8eff	0.04969692
48	0x3e73437e	0.23756215
49	0xbe2dcfba	-0.16973773
50	0x3c848f16	0.01618151
51	0x3df48f7d	0.11941431
52	0xbe00aa08	-0.12564862
53	0x3e976fdd	0.29577532
54	0xb92e3040	-0.00016611908
55	0xbe9bcd82	-0.30430228
56	0x3e82d936	0.25556344
57	0x3a4730fc	0.0007598547
58	0x3e9d4a37	0.30720684
59	0x3d9f7dcc	0.07787666
60	0xbcc50457	-0.024049921
61	0xbe5f1733	-0.21786194
62	0xbdb27128	-0.08712989
63	0xbe9dcc77	-0.30820057

network.1.weight f4 [64]
0	0x3f816c5d	1.0111195
1	0x3f81c4b8	1.0138159
2	0x3f7b9ae7	0.9828324
3	0x3f81c750	1.013895
4	0x3f7ec9da	0.9952675
5	0x3f810698	1.0080137
6	0x3f7ce5c1	0.98788077
7	0x3f81afc2	1.0131762
8	0x3f7b8f3d	0.9826544
9	0x3f822de1	1.0170251
10	0x3f7b9d44	0.98286843
11	0x3f803d38	1.0018682
12	0x3f80ad2c	1.0052848
13	0x3f801cf0	1.0008831
14	0x3f7b96ce	0.98276985
15	0x3f7bece8	0.98408365
16	0x3f81c958	1.013957
17	0x3f7d8cad	0.9904278
18	0x3f7cda39	0.9877048
19	0x3f81cc26	1.0140426
20	0x3f80d080	1.0063629
21	0x3f81bcfa	1.0135796
22	0x3f7cfedb	0.9882638
23	0x3f7d8013	0.9902355
24	0x3f813cc0	1.0096664
25	0x3f7cc544	0.98738503
26	0x3f7b98ce	0.98280036
27	0x3f7dbbd2	0.99114716
28	0x3f7f6736	0.9976686
29	0x3f815054	1.0102639
30	0x3f7dbd3f	0.9911689
31	0x3f7c71c2	0.9861108
32	0x3f7e5bf6	0.9935907
33	0x3f7d3790	0.98912907
34	0x3f7c92f8	0.98661757
35	0x3f81597c	1.0105433
36	0x3f7ba962	0.9830533
37	0x3f7c7129	0.9861017
38	0x3f81bfa2	1.0136607
39	0x3f8056db	1.0026506
40	0x3f7c92c2	0.98661435
41	0x3f81bb04	1.0135198
42	0x3f7c7826	0.9862083
43	0x3f7e248e	0.9927453
44	0x3f7b94a8	0.98273706
45	0x3f7b8aa8	0.9825845
46	0x3f81cb80	1.0140228
47	0x3f7c88bc	0.9864614
48	0x3f7c6a52	0.9859973
49	0x3f802e76	1.0014179
50	0x3f8065a4	1.0031018
51	0x3f7d4094	0.98926663
52	0x3f7ebd22	0.99507344
53	0x3f7dd70c	0.9915626
54	0x3f81c8b7	1.0139378
55	0x3f7bf404	0.98419213
56	0x3f7dbfd8	0.99120855
57	0x3f7ba150	0.9829302
58	0x3f81bdca	1.0136044
59	0x3f7b9870	0.98279476
60	0x3f814a9d	1.0100895
61	0x3f8077ba	1.0036538
62	0x3f822ac4	1.0169301
63	0x3f800f76	1.0004718

network.1.bias f4 [64]
0	0x3c7adc5a	0.015311325
1	0x3c653ce2	0.013991566
2	0xbc056869	-0.008142569
3	0x3c344264	0.011002157
4	0x3bbd353e	0.005774169
5	0xbc7ab4a4	-0.015301857
6	0x3c6dd2bb	0.014515574
7	0x3c603ba7	0.013686097
8	0x3b9d1608	0.004793886
9	0x3c8ebb8f	0.01742342
10	0x3c625b26	0.013815677
11	0x3bb7c143	0.0056077554
12	0x3c641876	0.013921848
13	0xbc0efea9	-0.008727708
14	0xbbd9a8e0	-0.006642446
15	0x3c33efbc	0.01098245
16	0x3c64ffe0	0.013977021
17	0x3bb6d94a	0.005580102
18	0x3c8665fa	0.016406048
19	0x3c64bd86	0.0139612015
20	0x3ba7759e	0.0051104566
21	0x3c5e279b	0.013559247
22	0x3c719b74	0.014746536
23	0x3b046ffa	0.0020208345
24	0xbc24006c	-0.010009866
25	0x3c426354	0.011864502
26	0xbc6a3cee	-0.014296753
27	0x3c8db298	0.017297074
28	0x3a65b5e7	0.00087627623
29	0x3c4c2548	0.01246006
30	0x3c82497e	0.015904184
31	0xbc637a43	-0.01388413
32	0xbc7d893a	-0.015474612
33	0xbc162099	-0.009163045
34	0xbb862460	-0.0040936917
35	0xbc2659f6	-0.010153284
36	0xbc643050	-0.013927534
37	0xbc63ce71	-0.0139042
38	0x3c729141	0.014805139
39	0x388d3f50	6.735197e-05
40	0xbc43fc74	-0.011962045
41	0x3c08ed2c	0.008357327
42	0xbc2fd768	-0.010732509
43	0x3c4816ac	0.012212437
44	0xbc6f6dee	-0.014613612
45	0xbc8a8624	-0.016909666
46	0x3c675302	0.014118912
47	0xbc267006	-0.010158544
48	0xbc3f83a8	-0.011689104
49	0x3c1d1064	0.009586427
50	0xbada7f6e	-0.0016670057
51	0xbc45ec33	-0.01208024
52	0x3b96a19c	0.004596902
53	0xbb883d3c	-0.0041576903
54	0x3c65bae8	0.014021613
55	0xbc2a43a0	-0.0103921
56	0x3c1f44f2	0.009721028
57	0xbc42872e	-0.01187305
58	0x3c654a0e	0.013994707
59	0x3b2d9204	0.0026484737
60	0xbc245921	-0.010031016
61	0x3c66eea4	0.014094982
62	0x3c531d76	0.012885442
63	0x3b15cb1c	0.0022856658

network.1.running_mean f4 [64]
0	0x3c1176bc	0.008878406
1	0x3de570a6	0.112031266
2	0xbe4d90d8	-0.20074785
3	0x3d529c1c	0.05141841
4	0x3e48bc8b	0.19603173
5	0x3db35b02	0.08757593
6	0xbe866e02	-0.26255804
7	0x3dee4791	0.11634744
8	0xbd08b162	-0.03337229
9	0x3d91409e	0.07092403
10	0xbd525198	-0.051347345
11	0x3e8c4754	0.2739817
12	0xbddece1c	-0.10879156
13	0xbe05a68b	-0.13051812
14	0x3c8b9eda	0.01704352
15	0xbdaa4104	-0.08313182
16	0x3e142e37	0.14470755
17	0x3e80c286	0.2514841
18	0xbe18fa9a	-0.14939347
19	0xbe4be3ff	-0.19911192
20	0x3e40c5fe	0.18825528
21	0xbe5a2e0a	-0.21306625
22	0x3dde30ba	0.108491376
23	0xbe08edb4	-0.13371927
24	0xbdbfc4e2	-0.09363724
25	0xbc1877c0	-0.009305894
26	0x3a14dfe1	0.00056791125
27	0x3e267e80	0.16259193
28	0x3d4e1b1d	0.050318826
29	0xbc15b8ba	-0.0091382805
30	0xbd5f2d38	-0.054486483
31	0xbdb10f5c	-0.08645508
32	0xbdc50e0f	-0.09621822
33	0x3e1dc04e	0.1540539
34	0x3dd75628	0.1051448
35	0xbc54caf6	-0.012987843
36	0xbcfc592c	-0.03080424
37	0xbcd0b922	-0.025478903
38	0x3dd19f56	0.10235469
39	0x3bdd99d2	0.0067627216
40	0x3e2213be	0.15827844
41	0xbc98c412	-0.018648181
42	0xbd8d4a22	-0.06898905
43	0x3b0eda02	0.0021797423
44	0x3e2eddc4	0.17076784
45	0xbc90f7bd	-0.017696256
46	0xbd85db65	-0.06535987
47	0x3d4e1902	0.050316818
48	0x3e6821c2	0.22669128
49	0xbe25bcda	-0.16185322
50	0x3cb064fa	0.021532524
51	0x3deee7d4	0.116653115
52	0xbdfb22c2	-0.12262489
53	0x3e8fa044	0.2805196
54	0xb9261ed0	-0.00015842472
55	0xbe9334d6	-0.28751248
56	0x3e78be70	0.24291396
57	0xb8391f80	-4.4136774e-05
58	0x3e9495d8	0.29020572
59	0x3da1ce56	0.079006836
60	0xbcee5a6e	-0.029095855
61	0xbe529209	-0.2056352
62	0xbdb1f0ce	-0.08688508
63	0xbe95c68c	-0.29253042

network.1.running_var f4 [64]
0	0x3e2c0525	0.16798837
1	0x3e658cfe	0.22417066
2	0x3e0ffba9	0.14060844
3	0x3e781c54	0.24229556
4	0x3ebdab33	0.37044677
5	0x3e6e1ee6	0.23253974
6	0x3e0ca5d8	0.1373514
7	0x3ec9ea06	0.39436358
8	0x3e82aa8e	0.25520748
9	0x3e646337	0.22303472
10	0x3eb058d8	0.34442782
11	0x3e2446aa	0.16042581
12	0x3e700f4e	0.23443338
13	0x3e9b8888	0.30377603
14	0x3e694ce8	0.22783244
15	0x3e4d755e	0.20064303
16	0x3dd17b2c	0.10228571
17	0x3dca5c24	0.09880856
18	0x3e43154a	0.1905109
19	0x3e573eb4	0.21020013
20	0x3e3bd6e2	0.1834369
21	0x3ecc8d1e	0.39951414
22	0x3e4bb750	0.19894147
23	0x3e59de7b	0.21276276
24	0x3e578684	0.21047407
25	0x3e4794f8	0.19490421
26	0x3e62c11c	0.22143978
27	0x3f1bb9ac	0.6083019
28	0x3e9e94f3	0.30973014
29	0x3e9308ce	0.28717655
30	0x3ebf81fa	0.37403852
31	0x3e88e0a0	0.26733875
32	0x3e3d9788	0.18514836
33	0x3e76f53a	0.24116984
34	0x3e8e8eb0	0.27843237
35	0x3e5687b4	0.20950204
36	0x3f186255	0.5952504
37	0x3e88a1ea	0.2668603
38	0x3e188510	0.1489451
39	0x3ee10868	0.43951726
40	0x3e387165	0.18012007
41	0x3df7a753	0.120924614
42	0x3e2be6ac	0.16787213
43	0x3ebdbfe3	0.3706046
44	0x3e9cce34	0.3062607
45	0x3e610326	0.21973857
46	0x3e2f7376	0.17133889
47	0x3e61d32f	0.22053216
48	0x3e47b586	0.1950284
49	0x3e1121e8	0.1417309
50	0x3e9bd4ae	0.304357
51	0x3e6e4f01	0.23272325
52	0x3df02507	0.117258124
53	0x3ec160a7	0.37769052
54	0x3e835bc6	0.25655955
55	0x3e6b9dcb	0.23009412
56	0x3e6f610a	0.23376861
57	0x3ee30b4a	0.4434455
58	0x3ea4b2f2	0.32167774
59	0x3e5bf0a8	0.21478522
60	0x3e643914	0.22287399
61	0x3e704f10	0.2346766
62	0x3e7eaa87	0.24869739
63	0x3f02b13d	0.51051694

network.4.weight f4 [32, 64]
0	0xbdbc904e	-0.092072114
1	0x3db1c109	0.08679397
2	0xbc335c20	-0.010947257
3	0x3dc9ac26	0.09847288
4	0x3d48e89b	0.049049955
5	0xbb6b7e64	-0.003593349
6	0xbd57bb58	-0.0526689
7	0x3ca12968	0.019673064
8	0x3becf4c5	0.0072313272
9	0x3d19c784	0.03754379
10	0xbd200384	-0.039065853
11	0xbb193018	-0.0023374613
12	0x3ba84e00	0.0051362514
13	0x3c953a62	0.018216316
14	0xbb11cc3e	-0.0022246982
15	0xbceadfae	-0.028671112
16	0x3dc2e096	0.095154926
17	0xbd9fc584	-0.07801345
18	0x3d2a3702	0.041556366
19	0xbc152fd6	-0.009105643
20	0x3c04998a	0.008093247
21	0x3d25355a	0.040334083
22	0xbb2e8254	-0.0026627975
23	0xbd5b25a3	-0.05350269
24	0x3b6c8b1e	0.0036093662
25	0x3bde051a	0.0067755105
26	0x3d13e400	0.03610611
27	0xbdb81858	-0.08989018
28	0xbc5c2a91	-0.013437883
29	0xbcc254bb	-0.023722043
30	0x3d92e420	0.07172418
31	0x3d555ac3	0.05208851
32	0x3cc1ebf2	0.023672078
33	0x3da8cb32	0.082418814
34	0x3cef2a44	0.029194959
35	0x3ced6fab	0.028983911
36	0x3baa14a4	0.005190449
37	0x3c591c09	0.013251313
38	0xbd2ffb94	-0.042964533
39	0xbd8375c8	-0.06418949
40	0xbc9c10b8	-0.01905094
41	0xbd53588b	-0.051598113
42	0xbcee386c	-0.029079638
43	0xbd1918a0	-0.037377
44	0xbd2552c5	-0.04036214
45	0x3ce3183a	0.027721513
46	0xbbfb2e48	-0.0076654293
47	0xbdefc382	-0.11707212
48	0xbc8d6b6a	-0.017263133
49	0xbde9a26f	-0.11407935
50	0xbca89c24	-0.020582266
51	0xbb93db8c	-0.004512256
52	0xbd957de8	-0.07299405
53	0x3ca4d234	0.020119764
54	0x3d4c084c	0.0498126
55	0xbd550daa	-0.052014984
56	0x3d314250	0.04327613
57	0xbc5ce8de	-0.013483254
58	0x3bcda84f	0.0062761675
59	0x3dac9880	0.084275246
60	0x3d41f859	0.047355983
61	0x3cc2e050	0.023788601
62	0xbab7f4a9	-0.0014034706
63	0xbd05a0ed	-0.032624174
64	0xbb889432	-0.004168057
65	0x3c817c5c	0.01580637
66	0xbd1b6f3e	-0.037947886
67	0x3d558b5e	0.052134864
68	0x3bb75984	0.005595388
69	0x3c879ce6	0.016554307
70	0x3d86419e	0.06555484
71	0x3dcf78a8	0.10130435
72	0xbdb20616	-0.08692567
73	0x3cf0bbc7	0.029386414
74	0xbc8ae3a4	-0.01695425
75	0xbd30822e	-0.0430929
76	0xbced435a	-0.02896278
77	0xbd69e852	-0.057106324
78	0xbc79fb32	-0.015257644
79	0x3d670755	0.056403477
80	0x3ca51727	0.020152641
81	0x3cfe6193	0.031052386
82	0xbccea378	-0.025224432
83	0x3c8503ee	0.016237225
84	0x3d654a98	0.05597934
85	0x3d96fbc6	0.07372241
86	0x3ca90c06	0.020635616
87	0x39056106	0.00012720012
88	0xbc305269	-0.010761836
89	0xbbd56b7a	-0.0065130563
90	0xbcfc8fc2	-0.030830268
91	0xbd6b95df	-0.057515975
92	0xbc57c466	-0.013169384
93	0x3c62eeda	0.013850892
94	0xbde7e2ec	-0.11322579
95	0x3d76d7e4	0.060264483
96	0xbcb00cba	-0.021490443
97	0x3c8f51f8	0.01749514
98	0x3d3648d0	0.044503033
99	0xbc463780	-0.012098193
100	0xbd8ddd3f	-0.06926965
101	0xbd06cade	-0.032908313
102	0x3d4a85a7	0.049443867
103	0x3d29ff88	0.04150346
104	0xbc376e47	-0.011195726
105	0x3d0ade28	0.03390327
106	0x3b3098df	0.0026946587
107	0xbd091926	-0.03347125
108	0x3bf287d4	0.007401446
109	0x3d32d6ac	0.04366176
110	0x3dd99f5e	0.106261
111	0x3da41948	0.080126345
112	0x3cea1d77	0.028578503
113	0x3cf32cea	0.029684503
114	0x3d53d216	0.051714025
115	0x3bad2f7a	0.0052852007
116	0xbd9e5ecc	-0.07732925
117	0xbadcb542	-0.0016838687
118	0xba4a229c	-0.00077108457
119	0xbd25e7de	-0.04050433
120	0xbdafef2e	-0.08590542
121	0x3d1cb5fe	0.0382595
122	0xbd238db8	-0.039930075
123	0xbd5b6b32	-0.053569026
124	0x3c25970a	0.010106811
125	0xbd85b962	-0.065294996
126	0x3de793bb	0.11307474
127	0xbbc6c93a	-0.0060664685
128	0x3e08a283	0.13343243
129	0x3db4fd1e	0.08837341
130	0xbd9a5246	-0.07535224
131	0xbdc6fcf3	-0.09716215
132	0xbd5ad9b7	-0.053430285
133	0x3d9a216e	0.075259075
134	0xbcd1ed58	-0.02562587
135	0x3c7794c5	0.015111153
136	0xbdb09286	-0.08621697
137	0x3db95991	0.090502866
138	0x3c218557	0.009858451
139	0xbd8c2700	-0.06843376
140	0x3d8174f9	0.06321139
141	0x3cacd1de	0.021096166
142	0x3be136b5	0.0068729767
143	0x3cd83df4	0.026396729
144	0xbc91c4a8	-0.017793968
145	0xbc503222	-0.012707265
146	0x3da65dee	0.081233844
147	0xbd40ebb2	-0.047099777
148	0xbd582c7a	-0.05277679
149	0xbd184f6e	-0.037185125
150	0x3bbb8b60	0.005723402
151	0xbd4b611e	-0.049653165
152	0xbb864359	-0.004097384
153	0x3ba16308	0.0049251355
154	0xbcf7e7e1	-0.030261936
155	0xbc4dec98	-0.012568615
156	0xbd4ec94a	-0.050484933
157	0x3d2e1ae4	0.042506114
158	0xba3e3bdb	-0.0007256844
159	0xb9d85978	-0.0004126539
160	0xbbbc33ac	-0.0057434645
161	0xbd511276	-0.051042996
162	0x3d432cbd	0.047650088
163	0xbbca4336	-0.006172563
164	0x3d70d846	0.058800004
165	0xbc2ad8d8	-0.010427676
166	0x3d2e9256	0.042620026
167	0xbd0359b8	-0.032067984
168	0xbccc0d06	-0.024908554
169	0xbd26130c	-0.04054551
170	0x3d9057af	0.07047974
171	0xbd720c56	-0.059093796
172	0x39f1f3ce	0.0004614875
173	0xbc170c69	-0.009219267
174	0x3c4adc6c	0.012381654
175	0x3c8f3b4e	0.017484333
176	0xbd813c56	-0.06310336
177	0xbd822f74	-0.06356707
178	0x3be8cacd	0.007104254
179	0xbc07fdb0	-0.00830023
180	0x3d74b12f	0.059739288
181	0xbd0a87c8	-0.033820897
182	0xbd391a0e	-0.045190863
183	0xbd28cad3	-0.041209053
184	0x3d6686f6	0.056281053
185	0xbd807418	-0.06272143
186	0x3d63a0c2	0.055573232
187	0xbd953856	-0.07286136
188	0x3daf1d77	0.08550542
189	0xbb79579e	-0.0038046609
190	0xbd4c15e1	-0.049825553
191	0x3d51e102	0.051239975
192	0x3d8904cf	0.0669037
193	0xbc8ab523	-0.016932076
194	0xbd703f5c	-0.058654174
195	0x3d85cd3c	0.06533286
196	0x3bfc3d55	0.007697741
197	0x3da3e416	0.08002488
198	0x3c94a1c9	0.018143551
199	0xbc9d9f28	-0.01924093
200	0xbd99c0f3	-0.07507505
201	0xbdd664e0	-0.10468459
202	0xbda0dc90	-0.07854569
203	0xbd31faea	-0.04345218
204	0xbd316dbe	-0.04331755
205	0x3db02c9e	0.0860226
206	0xbc404780	-0.011735797
207	0xbc16d282	-0.009205462
208	0xbd0bec9d	-0.0341612
209	0x3c17645f	0.009240239
210	0xbd727c79	-0.059200738
211	0xbcb92749	-0.02260174
212	0x3cf113e2	0.029428426
213	0x3d984b86	0.0743628
214	0xbccc3572	-0.024927828
215	0x3dc508d5	0.09620825
216	0x3b9297df	0.004473671
217	0xbd5bbcae	-0.053646736
218	0x3d0e7159	0.034776065
219	0x3d394982	0.04523612
220	0xbce96b30	-0.028493494
221	0x3ddaa8bf	0.10676717
222	0x3d9d9a8a	0.076954916
223	0x3ddcd422	0.107826486
224	0xbd06507a	-0.032791592
225	0x3d786951	0.060647313
226	0xbd714eca	-0.05891303
227	0xbd944f1d	-0.07241652
228	0xbc9b4a96	-0.018956464
229	0xbd35c7d2	-0.044380017
230	0x39d481fb	0.00040532634
231	0xbc751d9b	-0.014960672
232	0xbddf716f	-0.109103076
233	0xbca8ccfc	-0.020605557
234	0xbce21bcc	-0.027601145
235	0x3ca3b0b8	0.019981727
236	0x3d18a88c	0.037270114
237	0x3d830462	0.0639732
238	0xbd8f0f11	-0.069852956
239	0x3d78f63a	0.060781695
240	0x3d082715	0.033240397
241	0x3dce66f0	0.100782275
242	0x3d54b191	0.051927153
243	0xbc4c1a12	-0.0124573875
244	0x3cb3c4c1	0.021944406
245	0xbd3ce132	-0.0461132
246	0x3dd4df69	0.103941746
247	0x3d3a8ad9	0.04554257
248	0xbd236a5f	-0.039896365
249	0xbcc78de4	-0.02435965
250	0xbcb75a75	-0.022382
251	0x3cb92346	0.022599827
252	0xbc9315e9	-0.017954784
253	0x3b896a0a	0.004193549
254	0x3b7f8cfd	0.0038993948
255	0xbc851724	-0.016246386

network.4.bias f4 [32]
0	0xbcf30fc7	-0.02967061
1	0x3d07a6b0	0.03311795
2	0xb920edfe	-0.00015347448
3	0xbd20ac1c	-0.039226636
4	0x3d8c32cf	0.068456285
5	0x3c87056e	0.016482081
6	0xbd8b7106	-0.06808667
7	0x3c938210	0.018006355
8	0xbb172c2e	-0.0023067105
9	0x3b4b3b63	0.003101074
10	0x3d84b55c	0.06479904
11	0xbd0424b4	-0.032261565
12	0xbbdd35e2	-0.006750808
13	0x3d7e10b9	0.062027667
14	0xb9320bca	-0.00016979795
15	0x3c470e9a	0.012149477
16	0x3cbd0109	0.023071783
17	0x3daaae4a	0.08334024
18	0xbb6cb53c	-0.0036118766
19	0x3d564ac2	0.05231739
20	0xb95194b0	-0.00019987184
21	0xb9194cd0	-0.00014619832
22	0xb9460340	-0.00018883962
23	0xb9033ab6	-0.00012515005
24	0x3a3bb54e	0.00071605004
25	0x3cc5c54b	0.024141928
26	0xbc6048e0	-0.01368925
27	0x3d03b624	0.032156125
28	0xbd2229da	-0.039590694
29	0x3d57d2df	0.052691337
30	0xbcebb30e	-0.028771903
31	0x39160d08	0.00014309969

network.5.weight f4 [32]
0	0x3f81bfbf	1.0136641
1	0x3f8140bf	1.0097884
2	0x3f818c9b	1.0121034
3	0x3f81b81e	1.0134313
4	0x3f80870a	1.0041211
5	0x3f823a2a	1.0174
6	0x3f80c8db	1.0061296
7	0x3f81957e	1.0123746
8	0x3f8066c6	1.0031364
9	0x3f82129a	1.0161927
10	0x3f806631	1.0031186
11	0x3f7defc6	0.9919399
12	0x3f823d22	1.0174906
13	0x3f822e8d	1.0170456
14	0x3f816bea	1.0111058
15	0x3f8155da	1.0104325
16	0x3f81c916	1.0139492
17	0x3f81c13e	1.0137098
18	0x3f81d324	1.014256
19	0x3f7c6f0c	0.98606944
20	0x3f823a14	1.0173974
21	0x3f816075	1.0107561
22	0x3f81be33	1.0136169
23	0x3f7fba14	0.9989331
24	0x3f81a0fc	1.0127254
25	0x3f818efa	1.0121758
26	0x3f7c8bb8	0.98650694
27	0x3f81f142	1.0151751
28	0x3f811bb6	1.0086582
29	0x3f81c0f6	1.0137012
30	0x3f81d75a	1.0143845
31	0x3f7f72e0	0.9978466

network.5.bias f4 [32]
0	0x3c6dff93	0.014526266
1	0x3bf23dbc	0.007392613
2	0x3c37f2bc	0.011227306
3	0x3c6569f8	0.014002316
4	0x3c29e9a4	0.010370646
5	0x3c8464b3	0.016161298
6	0x3b112ba6	0.002215126
7	0x3c633434	0.013867427
8	0x3c3279fe	0.010893343
9	0x3c7fd69a	0.01561513
10	0x3b497a9b	0.0030743245
11	0xbc5b57ca	-0.01338763
12	0x3c8e092a	0.017338354
13	0x3c8f02c8	0.01745738
14	0x3c44b41c	0.012005832
15	0x3c3408aa	0.010988394
16	0x3c319770	0.010839328
17	0x3b5021ac	0.0031758351
18	0x3c62a5ba	0.013833458
19	0xbc2bb03c	-0.010479029
20	0x3c81c94b	0.015843054
21	0x3c428588	0.011872657
22	0x3c823f12	0.015899215
23	0x3b85909a	0.0040760757
24	0x3c62a64a	0.013833592
25	0x3c640fcc	0.013919782
26	0xbc74a20e	-0.014931215
27	0x3c8f1b08	0.017468944
28	0x3ba5f496	0.0050645573
29	0x3c5d0560	0.013490051
30	0x3c23e5db	0.010003532
31	0x3b5675ca	0.0032724016

network.5.running_mean f4 [32]
0	0xbd89e02c	-0.067322105
1	0x3d912c39	0.07088513
2	0xbdc70d5a	-0.097193435
3	0x3d8bd5fa	0.06827922
4	0x3ed734d2	0.42032486
5	0x3df64992	0.12025751
6	0xbe2fbba5	-0.17161424
7	0x3d425350	0.047442734
8	0xbeaecff8	-0.34143043
9	0x3d096cf1	0.03355116
10	0x3ca230ee	0.019798722
11	0x3d95b3d0	0.07309687
12	0xbda3a7d8	-0.07990998
13	0x3e08c974	0.13358098
14	0x3e0ed77f	0.13949393
15	0xbd3e2c87	-0.046429183
16	0x3dfd073a	0.12354894
17	0xbe308120	-0.17236757
18	0x3e05c0d8	0.13061845
19	0x3e36d6f3	0.17855434
20	0x3d82e554	0.06391397
21	0xbe13f9a3	-0.14450698
22	0xbe10848c	-0.14113063
23	0xbd7b8650	-0.061407387
24	0x3aa29648	0.0012404406
25	0x3d0025fc	0.031286225
26	0x3ccc440a	0.024934787
27	0x3e1ac9d6	0.15116057
28	0xbe575942	-0.21030143
29	0x3e5e87f0	0.21731544
30	0x3c9ee4ba	0.019396175
31	0x3d01f5b7	0.031728473

network.5.running_var f4 [32]
0	0x3e243bb1	0.16038395
1	0x3e2a7132	0.16644743
2	0x3e27d252	0.16388825
3	0x3e93865a	0.2881344
4	0x3e519d28	0.20470107
5	0x3e4d56f6	0.20052704
6	0x3e3416ae	0.17586777
7	0x3e8f7fb3	0.28027114
8	0x3e7393c9	0.23786844
9	0x3e2a6774	0.16641027
10	0x3e9ed726	0.3102352
11	0x3e72aee2	0.23699525
12	0x3e28d391	0.16486956
13	0x3e5f2502	0.21791461
14	0x3e3ae2bc	0.18250555
15	0x3e49df0c	0.19713992
16	0x3e59db7c	0.21275133
17	0x3e26755a	0.16255704
18	0x3e221630	0.15828776
19	0x3e5c7d8b	0.21532266
20	0x3e733c4c	0.2375347
21	0x3e5041c2	0.20337585
22	0x3e656d86	0.22405061
23	0x3e49d8a8	0.19711554
24	0x3e2d44f4	0.16920835
25	0x3e48f641	0.19625188
26	0x3e41c0c0	0.18921185
27	0x3e8b6bda	0.27230722
28	0x3e4886da	0.19582692
29	0x3e4e2964	0.20132977
30	0x3e3b6b0e	0.18302557
31	0x3e2ac835	0.16677935

network.8.weight f4 [16, 32]
0	0x3d389525	0.04506411
1	0xbd208b15	-0.03919514
2	0x3d8e9277	0.0696153
3	0xbca5ad07	-0.020224107
4	0x3b8a6e7e	0.0042245975
5	0xbdae8cfd	-0.08522985
6	0xbdbc7d80	-0.09203625
7	0xbb49d2af	-0.0030795743
8	0xbd9f2788	-0.07771212
9	0x3ccccdbb	0.025000444
10	0xbb968730	-0.0045937523
11	0xbc8152fc	-0.01578664
12	0x3d990662	0.074719205
13	0xbd93300f	-0.07186901
14	0x3a341108	0.0006868993
15	0x3e130935	0.14358981
16	0xbdede64c	-0.11616191
17	0x3d8ccd2a	0.068750694
18	0xbe0f1e9e	-0.13976523
19	0xbd8a757c	-0.067606896
20	0x3dbfe07c	0.09368989
21	0xbd989815	-0.07450882
22	0x3cbf31cb	0.023339173
23	0x3d941c0e	0.072319135
24	0x3d2fd092	0.042923518
25	0x3d4728f9	0.04862306
26	0x3e25db58	0.16196954
27	0x3e0c1bfa	0.13682547
28	0x3cb7f88e	0.022457387
29	0xbd526357	-0.05136427
30	0x3d750458	0.059818596
31	0xbddd0b5e	-0.10793184
32	0x3d792a48	0.06083134
33	0x3d02bac8	0.03191641
34	0x3d58f3ff	0.052967068
35	0xbd94b338	-0.07260746
36	0x3d07de3e	0.03317093
37	0x3c2254a6	0.009907877
38	0xbc51081c	-0.012758281
39	0xbd1a0e96	-0.037611566
40	0xbe038da1	-0.12846996
41	0x3d9ecea8	0.0775426
42	0x3d245e1e	0.04012882
43	0xbbb227b2	-0.005436861
44	0xbd434d92	-0.0476814
45	0x3de5d1be	0.11221646
46	0x3d9597f5	0.07304374
47	0x3dd86fa8	0.10568172
48	0x3e0befd4	0.13665706
49	0xbddf3b5a	-0.10899992
50	0x3d40be6a	0.047056593
51	0xbd2823e5	-0.041049857
52	0x3e06a6bd	0.13149543
53	0xbc9c0524	-0.01904542
54	0xbdc54fb2	-0.09634341
55	0x3dc2980e	0.095016584
56	0xbc9f3bd8	-0.019437715
57	0x3c8d4df8	0.017249092
58	0xbdb13354	-0.08652368
59	0x3da131f8	0.07870859
60	0xbd14b77c	-0.036307797
61	0xbc409ce8	-0.011756159
62	0xbd842fc7	-0.06454425
63	0x3d29a158	0.041413635
64	0x3d004dbd	0.031324137
65	0xbce40ec8	-0.02783908
66	0xbcd06636	-0.025439363
67	0x3d9b9ca8	0.07598239
68	0x3cd5c486	0.026094686
69	0xbdb689ac	-0.089129776
70	0xbcea0b23	-0.028569764
71	0x3df01a8a	0.11723812
72	0x3d1449a0	0.036203027
73	0xbe0c9bf8	-0.13731372
74	0x3a19d1fc	0.0005867777
75	0xbd7c87e0	-0.061653018
76	0x3cda5584	0.026652105
77	0x3d940a2e	0.07228504
78	0x3d2b9296	0.041887842
79	0xbde80f8a	-0.11331089
80	0xbdc1801d	-0.09448264
81	0xbc8ef999	-0.017453002
82	0xbcae04d2	-0.021242533
83	0xbe128e95	-0.14312203
84	0x3da4535c	0.08023712
85	0xbd051ac9	-0.032496247
86	0x3aceffc1	0.0015792773
87	0x3d9b81c7	0.075931124
88	0xbda5dea3	-0.08099105
89	0xbdb42fae	-0.08798157
90	0x3daadacc	0.083425134
91	0xbd0f98a6	-0.035057686
92	0xbd0aec9c	-0.033917055
93	0xbda2e3f1	-0.079536326
94	0x3d22b079	0.03971908
95	0xbd633a9a	-0.05547581
96	0x3d56ce58	0.05244288
97	0x3ba32187	0.004978362
98	0x3d94b49f	0.07261013
99	0xbdbee0e0	-0.09320235
100	0x3ddb4b67	0.10707741
101	0xbdc8f06c	-0.09811482
102	0x3ce660c0	0.028122306
103	0xbbfa7a37	-0.0076439637
104	0xbd83a530	-0.064279914
105	0x3d3b16d0	0.045676053
106	0x3d94fb82	0.07274534
107	0x3d857082	0.065156
108	0xbd67646e	-0.05649226
109	0x3d1020da	0.03518758
110	0x3b513552	0.003192265
111	0x3d8ae87c	0.06782624
112	0x3dab1344	0.08353284
113	0xbd4e7352	-0.050402947
114	0x3d874952	0.066057816
115	0xbd9b19ae	-0.075732574
116	0xbcf0e561	-0.029406251
117	0x3d84585e	0.06462167
118	0xbd26ba0c	-0.040704772
119	0x3d85e811	0.06538404
120	0x3ca7802d	0.020446861
121	0x3daca2f9	0.08429522
122	0xbd1c5bda	-0.038173534
123	0xbcf161e6	-0.029465627
124	0xbc75b83e	-0.01499754
125	0x3d563436	0.052295886
126	0x3e3a7034	0.18206865
127	0x3da9cecd	0.08291397
128	0x3e23358d	0.15938397
129	0xbcb77ff0	-0.022399873
130	0x3ddcc79d	0.10780261
131	0xbdca734a	-0.09885271
132	0x3d50cf83	0.05097915
133	0x3de2d2dc	0.110753745
134	0xbd642489	-0.055698905
135	0xbdc8ec5c	-0.09810707
136	0xbc0bbf38	-0.008529477
137	0x3de76298	0.11298102
138	0xbb9265e6	-0.0044677136
139	0xbce9448c	-0.028475069
140	0xbd91ea0b	-0.07124718
141	0x3dfdfd80	0.12401867
142	0x3ceb45b4	0.02871976
143	0xbd0fc18a	-0.035096683
144	0xba096cde	-0.0005242358
145	0xbe10f135	-0.14154513
146	0x3e0a6fca	0.13519207
147	0xbdf13188	-0.117770255
148	0xbd9fce58	-0.07803029
149	0xbd849362	-0.064734235
150	0xbd42f7f0	-0.047599733
151	0xbcbf621c	-0.023362212
152	0x3e03825e	0.128427
153	0x3cc3721a	0.023858119
154	0x3cfeea88	0.031117693
155	0x3e275a4a	0.16343036
156	0xbd600404	-0.05469133
157	0xbc2253e4	-0.009907696
158	0xbdc7a726	-0.09748678
159	0x3c575eae	0.013145132
160	0x3cee7b5c	0.029111557
161	0xbb6a93d1	-0.0035793672
162	0x3d4d00c5	0.050049562
163	0xbcc260b1	-0.023727747
164	0x3cea265c	0.028582744
165	0xbdca278a	-0.09870823
166	0xbd508b0c	-0.050913855
167	0x3d4d1164	0.050065413
168	0xbc9f69fe	-0.01945972
169	0xbc4f893a	-0.012666995
170	0xbe01fcb5	-0.12694056
171	0x3ca480f4	0.02008102
172	0xbd17bdae	-0.037046127
173	0xbd8ad871	-0.06779564
174	0xbdcdd806	-0.10050969
175	0xbd1015c4	-0.035177007
176	0xbd7f7e89	-0.062376533
177	0xbda9f4a3	-0.08298614
178	0xbda2d6bd	-0.07951114
179	0xbcbd3e94	-0.023101129
180	0x3d328366	0.043582343
181	0x3d79636e	0.06088584
182	0x3d334d18	0.043774694
183	0xbc1ca440	-0.009560645
184	0x3d6ef4f8	0.05833909
185	0xbe283032	-0.16424635
186	0x3d80f1d1	0.06296123
187	0xbc578a6e	-0.013155563
188	0xbbd3592c	-0.006449839
189	0x3d4f1e86	0.05056622
190	0xbd6f94c0	-0.05849147
191	0x3e21f36c	0.15815514
192	0x3de8884f	0.11354124
193	0x3e0c5d67	0.13707505
194	0x3d745154	0.059647873
195	0x3cfa9780	0.030589819
196	0xbccd5464	-0.025064655
197	0x3da8996f	0.0823239
198	0x3d6bb544	0.057545915
199	0x3bfa0f91	0.00763125
200	0x392d636a	0.000165356
201	0xbd7fb61b	-0.06242953
202	0xbda24ad6	-0.0792443
203	0xbc2c0a2d	-0.010500473
204	0x3b89d944	0.0042068083
205	0xbcfbbe0b	-0.030730268
206	0x3d5bb2e2	0.053637393
207	0xbd63db91	-0.055629317
208	0x3d5379c6	0.051629804
209	0xbd337543	-0.043813
210	0xbd4836b2	-0.048880287
211	0x3c89f7b2	0.016841743
212	0x3d8cd222	0.06876017
213	0x3b0cd6c2	0.002149031
214	0x3dea466b	0.114392124
215	0x3d1cd337	0.038287368
216	0xbd1cea6a	-0.038309492
217	0xbc88ed3f	-0.01671469
218	0xbdd1fc9c	-0.102532595
219	0x3cadbe0f	0.021208791
220	0x3d4afc74	0.049557164
221	0xbc22375e	-0.009900896
222	0x3e102455	0.1407636
223	0x3d5cffe2	0.053954966
224	0xbcf92c28	-0.030416563
225	0x3d07a6d3	0.03311808
226	0xbc204f0f	-0.009784474
227	0x3dad0dbd	0.08449886
228	0x3e2258b6	0.15854153
229	0x3e1dacf2	0.15398005
230	0x3de7676c	0.11299023
231	0x3d53c64c	0.051702783
232	0x3d813a11	0.063099034
233	0xbdae7ff5	-0.085204996
234	0x3d0e9b94	0.03481634
235	0x3a9190f0	0.0011105817
236	0x3e07338d	0.13203259
237	0x3d6e4d9a	0.058179475
238	0xbe00a064	-0.12561184
239	0xbd480430	-0.04883212
240	0xbde1ac32	-0.11019172
241	0x3dfcabf1	0.12337483
242	0x3dd43b91	0.10362924
243	0x3d430102	0.047608383
244	0xbd69a160	-0.057038665
245	0x3db4fcf7	0.08837312
246	0xbd3528c8	-0.044228345
247	0xbc2d7f1e	-0.010589389
248	0x3d13c86d	0.036079813
249	0xbd314d52	-0.04328663
250	0xbb3601ce	-0.0027772072
251	0xbc175891	-0.0092374245
252	0x3d90b9e3	0.07066705
253	0xbcee34fc	-0.029078
254	0x3cb42322	0.021989409
255	0xbd1694bc	-0.036762938

network.8.bias f4 [16]
0	0xbd47b67a	-0.048758008
1	0x3dc6d6a6	0.0970891
2	0x3d71d526	0.059041165
3	0x3d1d4d52	0.038403817
4	0xbb916a70	-0.004437737
5	0xbd094366	-0.03351154
6	0xbdda3db4	-0.106563
7	0x3d362986	0.044473194
8	0xbccf8241	-0.025330665
9	0xbdbf0f8c	-0.09329137
10	0xbcf16f02	-0.029471878
11	0xbccfee58	-0.025382206
12	0xbc1df11c	-0.0096400045
13	0xbdbe7f05	-0.09301571
14	0xbc114a62	-0.008867832
15	0xbdc3d874	-0.095627695

network.10.weight f4 [1, 16]
0	0xbe0f5402	-0.1399689
1	0xbe00a31d	-0.12562223
2	0x3dabbd00	0.08385658
3	0xbe414a72	-0.18876055
4	0xbd84bb7c	-0.06481072
5	0x3d0c8b80	0.034312725
6	0xbc70d4a1	-0.014699132
7	0x3d92d169	0.07168848
8	0xbdd128f4	-0.10212889
9	0xbe627dda	-0.22118321
10	0x3dfc9442	0.123329654
11	0x3e7fef29	0.24993576
12	0x3cdc8a6c	0.026921473
13	0x3e707b0a	0.23484436
14	0xbe2119fb	-0.15732567
15	0x3e541faf	0.20715211
