Bank-1/global_model.pth (torch, 20645 bytes, 15 tensors)

network.0.weight f4 [64, 7]
000000 7c 0a d1 3d ba 2c 7c 3e 08 55 ab bd 7d 0f 94 3e
       0.10207078 0.24626437 -0.08365828 0.28918067
000010 3c a2 91 bd 10 0b 2e 3e 09 c8 dd 3d 2e 3b b2 bc
       -0.07111022 0.16996408 0.10829169 -0.021756735
000020 20 8a 09 bc 10 7d cd bb 40 3e 28 be 5f f4 53 3d
       -0.008394748 -0.006271012 -0.16429996 0.051746722
000030 09 23 41 3e 08 d9 5c 3e b0 da 1b be c6 50 5a 3d
       0.18861021 0.21567166 -0.15220141 0.053299688
000040 24 20 7b be 06 dd af bc 7a 56 27 be ea b1 5f bd
       -0.2452398 -0.021467697 -0.16341582 -0.05461303
000050 7e 9d 88 bd 44 9f ac bd 5c 7f fa bd 84 33 a0 be
       -0.06670664 -0.08428815 -0.12231323 -0.31289303
000060 66 7b 25 be 6b f4 03 bd 04 8b 9d 3e 22 48 7a 3e
       -0.16160354 -0.032215517 0.30770123 0.24441579
000070 57 95 f5 3c cb 8c 0c 3e 30 8e fb bd dd 5e 2f 3e
       0.029978437 0.13725583 -0.122829795 0.17126031
000080 9f 26 45 bd a6 7e 1e be d3 f1 5d 3e 6e b5 9f bd
       -0.048132535 -0.15478 0.2167428 -0.07798277
000090 4d 3b 4e be 69 86 3b be 18 91 52 3e 08 b7 11 3b
       -0.20139809 -0.18312992 0.20563161 0.002223434
0000a0 ca 6e 8e 3d 6c 09 f5 bd 83 02 15 be d0 c4 de 3d
       0.06954725 -0.11964688 -0.1455174 0.10877383
0000b0 a9 c3 e9 ba d3 6b 22 be 55 fb 8b 3d b6 54 4d be
       -0.00178348 -0.15861444 0.06835047 -0.20051846
0000c0 d4 90 d7 3d 2a 1b 84 3e c0 6a ac 3d 97 a2 f6 bd
       0.10525671 0.25801975 0.084187984 -0.1204273
0000d0 a0 bb 38 3e 61 93 89 3e 5e 60 48 3c 3c fa 6a 3e
       0.18040323 0.26870254 0.012230007 0.2294702
0000e0 7d ee 30 3d 9f 15 9d be c8 8b 58 3e 94 af 7b bd
       0.04319619 -0.30680558 0.21147072 -0.06144674
0000f0 1c 48 e3 3d 5a 24 67 3c 3b fe c3 bd f9 55 71 be
       0.11097738 0.014107788 -0.09569975 -0.23567952
000100 ac 42 8d be ec f3 2d 3e 34 6c a3 3e b8 15 a0 bd
       -0.2758993 0.1698758 0.3191849 -0.078166425
000110 9b e7 65 bc ee a8 14 be c3 60 c4 3d 9f d3 20 be
       -0.01403227 -0.14517567 0.09588768 -0.15705727
000120 70 45 ec 3d 4b 54 56 3c c4 7c c2 3d da d3 4d be
       0.11536682 0.01308162 0.094964534 -0.20100346
000130 9a d3 04 be dd 15 2b be 2f be b4 3d d2 7d a2 be
       -0.12971345 -0.16707559 0.08825337 -0.31736618
000140 f6 66 36 bc 58 4d 8b bd 92 82 d8 3d 83 33 03 3e
       -0.011132946 -0.068018615 0.10571779 0.12812619
000150 16 2d e6 3b 48 f7 db bc 9c ef 49 3b 24 92 0d bd
       0.0070244176 -0.026851311 0.0030812984 -0.0345632
000160 9d 40 50 3e be 49 f5 3d d4 30 9c bd f8 89 8c 3e
       0.20337148 0.11976956 -0.07626501 0.27449012
000170 67 79 d9 3c 99 db 42 3e d0 88 53 be 6e f7 9f bd
       0.026547147 0.19029082 -0.20657659 -0.07810865
000180 14 94 dd bd a4 b4 01 3e 8c cc 36 3e 9c 75 2b 3e
       -0.10819259 0.12666565 0.17851466 0.16744083
000190 40 a0 fd 3d 06 28 83 be 66 0b a8 bd 10 9b 09 3e
       0.12384081 -0.25616473 -0.08205299 0.13438058
0001a0 fe bd 9e bb 3b 52 31 3d 44 89 34 bd 20 b0 fd bc
       -0.004844426 0.04329131 -0.04407622 -0.030967772
0001b0 1e 7e ae bd 4a d5 87 bb da e3 1f 3e fa 2e 42 3e
       -0.08520149 -0.004145299 0.15614262 0.18963233
0001c0 8c fc 57 be 10 09 c7 3c 6e 33 1f 3e db cd 7e bb
       -0.21092433 0.024296314 0.15546963 -0.0038880024
0001d0 72 15 0e 3e 13 56 88 be fd f1 15 3b 7a e7 ee 3c
       0.13875368 -0.2662817 0.0022879832 0.029163111
0001e0 fe 18 11 3e 82 3c 83 be 5a 72 7c be 13 5f a9 3d
       0.1416969 -0.256321 -0.24652997 0.08270087
0001f0 80 84 81 3e fc 54 76 3e 3d 7b aa 3d f1 d1 7a 3d
       0.25296402 0.24055856 0.08324287 0.061235372
000200 75 31 96 3e 41 8a 38 be f0 39 a3 3d 71 ad e7 bc
       0.29334608 -0.1802149 0.07970035 -0.028280945
000210 1a fa 93 3e 8c 10 cd 3d 9f a5 81 3d 20 8f 82 be
       0.2890175 0.10012922 0.06330418 -0.2549982
000220 50 46 b7 bd 32 0e 52 be 5c 6e d0 3d 62 e1 40 3e
       -0.08948958 -0.20513228 0.101772994 0.18835977
000230 39 e7 b4 3d ae 53 2b 3e 30 77 91 bc 4a b6 f3 bc
       0.08833165 0.1673114 -0.017757028 -0.029750008
000240 1d 2c 6c 3c ee 64 97 3c 60 65 8d be 46 63 2a bd
       0.014414814 0.018480744 -0.27616405 -0.04159858
000250 6c 37 1b 3d e4 7e f5 bd ce 45 30 3e 52 6c 92 bd
       0.03789465 -0.11987093 0.17214128 -0.07149567
000260 9c 08 44 3d 94 b9 db bd d8 e5 57 3d eb a2 37 be
       0.047859773 -0.107287556 0.05270943 -0.17933242
000270 64 0d 5a be 3e 51 a4 3e 0a 20 23 3c 26 9b aa 3d
       -0.2129417 0.32093233 0.009956369 0.083303735
000280 35 d1 2b be 6c a0 73 be 44 e5 83 3e ba a5 45 3d
       -0.16779025 -0.23791665 0.25760853 0.048253752
000290 9f b8 98 bd d2 d1 93 be 78 90 98 bd 00 47 ec bd
       -0.07457089 -0.28871018 -0.0744943 -0.1153698
0002a0 d2 d8 33 bd a0 c0 8f 3e 38 b6 61 be 4b a3 c7 bc
       -0.043907948 0.2807665 -0.22042167 -0.024369856
0002b0 9e ec 14 bd 50 18 8d 3e c6 09 4f 3e 66 6e d7 bd
       -0.03635847 0.2755761 0.20218572 -0.10519104
0002c0 a8 73 8d 3e bd e9 36 be 72 12 e5 3d 3c 63 af be
       0.276273 -0.17862602 0.11185159 -0.34255397
0002d0 c9 45 a9 3e 94 66 5e bd 26 a6 55 bd 0c 57 11 3e
       0.33061054 -0.054297045 -0.052160405 0.14193362
0002e0 1e 9f 3d 3e b6 ec ad bd f3 23 03 be 8c 41 7f 3c
       0.1851773 -0.08492415 -0.12806682 0.015579592
0002f0 f3 be 4d be 65 4e 99 bd 44 89 00 3d f6 b1 07 3e
       -0.20092373 -0.07485656 0.031380907 0.1325148
000300 67 b1 86 3e 3c b1 b2 bd ca 1b 96 bc 0c 96 57 bd
       0.26307222 -0.08725211 -0.018323798 -0.05263333
000310 b6 7c 06 3b 38 7d 42 bd 67 bb d3 3d 18 78 87 3e
       0.002052111 -0.0474827 0.103384785 0.26458812
000320 93 ae 02 3e f8 09 36 be 0a 8a ae bd b4 78 48 3e
       0.12761907 -0.1777724 -0.085224226 0.19577295
000330 ab 74 ee bc b8 5a 25 3e 70 ec 3b 3d 4d 18 32 be
       -0.029108366 0.16147888 0.04587978 -0.17392083
000340 6e bc 20 be 78 1b 28 3e 06 23 d6 bd ba 7e c4 3d
       -0.1569688 0.16416728 -0.10455899 0.09594484
000350 17 51 6c be 5c 82 4b 3d 13 96 35 3e b2 75 78 bd
       -0.23077808 0.049684867 0.1773303 -0.060659118
000360 1e f0 7b bd 4e 7d 60 be ec 2e 64 bd 8e 2a 2a 3d
       -0.06150829 -0.219228 -0.05570881 0.04154449
000370 4e fc 68 bd 4a f1 e5 3a 50 55 8b 3e 7c e2 68 3d
       -0.05688124 0.0017543223 0.27213526 0.056856617
000380 24 c1 36 3d c0 94 04 3e 44 8d e8 bd e1 a8 16 3e
       0.044617787 0.12947369 -0.11355069 0.1471286
000390 0a 1a 6f bd ac d1 f2 3c 8c 8b 08 be 7c a0 a8 bd
       -0.058374442 0.029640995 -0.13334483 -0.08233735
0003a0 88 66 97 3e 6c 52 1f 3e c0 ec 92 3e 8d d6 b4 bd
       0.29570413 0.15558785 0.2869625 -0.08829985
0003b0 a5 56 00 3e ce 47 2f 3e c8 e3 4f 3e 28 58 98 bb
       0.12533052 0.17117235 0.20301735 -0.004649181
0003c0 66 de 65 bd 01 32 d4 3c 83 9f 26 3e 94 ca 11 3e
       -0.0561203 0.02590275 0.16271786 0.14237434
0003d0 09 79 2a be 0d a7 28 3d 62 4c d7 3b b8 ea 38 3e
       -0.16647734 0.041174937 0.006570385 0.18058288
0003e0 fc 8a 25 3b 7f c7 4c 3e e6 44 af bc 84 f8 2b 3d
       0.0025259843 0.19997977 -0.021395158 0.04198505
0003f0 6e 3c 51 3e 9b 1c 35 3e 8f 3d 4a be be 23 a3 be
       0.20433208 0.17686693 -0.19750045 -0.31863207

network.0.bias f4 [64]
000000 6a 61 cc 3d f4 fe f0 bb bf 7a ab bc b7 24 bb 3d
       0.09979518 -0.0073546115 -0.020932553 0.09137862
000010 e7 73 5f be 6f 82 98 be 0c c2 0d 3e 19 22 0e bd
       -0.21821557 -0.29787013 0.13843554 -0.034700487
000020 14 12 35 bc 4a 30 9e be 0a 62 98 bd 18 dc 98 3c
       -0.011051673 -0.30896217 -0.074405745 0.018659636
000030 3e 1e ee bd 26 ea 14 bd f9 fb 8c bc 32 1f 80 3e
       -0.11626862 -0.036356114 -0.017209994 0.250238
000040 7e 63 63 3e 2b 98 a9 bc 01 4d cf bc aa 34 06 3c
       0.22205922 -0.020702442 -0.025305273 0.008191267
000050 25 86 8c 3e 20 cf 87 3d af ba af 3d a5 c5 71 3e
       0.27446094 0.06631303 0.08580529 0.23610552
000060 b0 29 ee 3c 3f 20 aa 3d ba 97 ed bc 88 cf 1a bd
       0.029072613 0.08306932 -0.029003013 -0.037795573
000070 a7 7f 5e be 44 6c 1e bd c6 bf 35 3d 6e 5d 17 3d
       -0.21728383 -0.03867747 0.044372343 0.036954336
000080 fd e5 1a 3e fa 0d 23 be e0 19 a9 3d d1 a1 cd 3c
       0.15126796 -0.159233 0.082568884 0.025101574
000090 86 fa 71 3e bf a1 92 3e 5e 1f 10 be bb e1 27 be
       0.23630723 0.28639027 -0.14074466 -0.16394703
0000a0 00 e9 0c be 87 9e 33 be ed 8e 45 3e 6b b7 10 3d
       -0.13760757 -0.17540942 0.19292803 0.03533117
0000b0 4c 78 8d 3e 60 20 f1 3c d9 ba bf 3b de dd 95 bd
       0.27630842 0.029434383 0.0058511314 -0.073177084
0000c0 e9 39 78 be f4 41 9b 3d 76 e2 20 be 5a ff cf bd
       -0.24240841 0.07580939 -0.15711388 -0.10156126
0000d0 2e 94 68 be 7a 33 40 b9 5f cd a4 3e 24 bf 1e 3b
       -0.22712776 -0.00018329723 0.32187936 0.0024222815
0000e0 fe 40 43 3e 66 a8 8f be b7 26 d7 3d 84 74 5e be
       0.19067761 -0.28058165 0.10505431 -0.21724135
0000f0 76 fd 20 bd 19 1d 3b be 44 64 38 3c 8a 0a 6c be
       -0.03930422 -0.18272819 0.011254374 -0.23050895

network.1.weight f4 [64]
000000 81 48 7e 3f da 49 80 3f 8a 41 7d 3f 6a 33 82 3f
       0.9932938 1.0022538 0.9892813 1.017194
000010 9d aa 81 3f f7 ce 81 3f 4c 99 7b 3f 2f f7 7c 3f
       1.0130192 1.0141286 0.9828079 0.9881467
000020 a2 21 7d 3f c4 b2 7b 3f 80 41 7f 3f 30 23 7f 3f
       0.98879445 0.9831965 0.9970932 0.99663067
000030 64 85 7c 3f 2b 0d 7d 3f 66 58 81 3f 7e 72 7e 3f
       0.9864104 0.9884822 1.0105102 0.9939345
000040 5c 89 7b 3f b5 47 7c 3f 46 c2 7c 3f 88 3d 81 3f
       0.9825647 0.98546916 0.9873394 1.0096903
000050 1b b0 7c 3f d7 85 80 3f 68 ca 81 3f 9d 6d 7c 3f
       0.98706216 1.0040845 1.0139894 0.98604757
000060 cc a1 7b 3f ea a1 7b 3f b5 cd 7f 3f 2a fe 7e 3f
       0.9829376 0.98293936 0.9992326 0.99606574
000070 da 5a 7f 3f 23 a0 7b 3f de d6 7b 3f a0 c4 7b 3f
       0.99748003 0.98291224 0.98374736 0.983469
000080 e6 b5 7b 3f 58 6c 7c 3f 48 04 7d 3f 4a c6 7c 3f
       0.9832443 0.9860282 0.9883466 0.98740065
000090 12 3a 82 3f b3 d3 7f 3f f8 cb 81 3f 18 b8 7f 3f
       1.0173972 0.999324 1.0140371 0.9989028
0000a0 dd 1b 7c 3f 22 68 7d 3f 7b fe 7d 3f 0f 3b 82 3f
       0.98480016 0.9898702 0.9921643 1.0174273
0000b0 8d d1 80 3f 3a 5b 7e 3f 4f 8e 7c 3f 1a 33 80 3f
       1.006395 0.9935795 0.98654646 1.0015595
0000c0 73 16 7d 3f bc b5 81 3f 8c 19 7c 3f 9a fa 7c 3f
       0.9886238 1.0133586 0.9847648 0.9881989
0000d0 70 07 81 3f a1 ce 7f 3f bf 5d 81 3f 62 b3 7d 3f
       1.0080395 0.99924666 1.0106734 0.9910184
0000e0 7c 92 7b 3f 97 8f 7c 3f ac 8d 7b 3f a7 5e 81 3f
       0.9827039 0.986566 0.9826305 1.0107011
0000f0 28 88 7c 3f 8f 6f 80 3f 47 82 7d 3f 02 de 7c 3f
       0.9864526 1.0034045 0.9902691 0.9877626

network.1.bias f4 [64]
000000 1e d2 53 3c 88 5e 63 bc f8 4c 78 b9 ce f8 8d 3c
       0.012928514 -0.0138775185 -0.00023679796 0.017330553
000010 6f e2 c2 ba da a0 65 3c d0 e3 6b bc d0 00 53 bc
       -0.0014868508 0.014015401 -0.014397576 -0.012878612
000020 bd b8 e8 3b d8 66 00 3b 04 b7 77 3c ba 3a 8f b9
       0.0071021006 0.001959255 0.015119318 -0.0002731884
000030 a6 82 54 39 c1 5e 79 3b 24 d4 2c 3c 63 eb 4c bc
       0.00020266566 0.0038050862 0.010548625 -0.012507292
000040 52 4d 8e bc fa a3 ec 3b 7f 02 10 bc eb 02 18 3c
       -0.017370854 0.007221696 -0.008789658 0.009278039
000050 48 d4 5d bc 7a c0 b9 3b c8 d3 63 3c c7 5f 40 bc
       -0.013539381 0.005668697 0.013905473 -0.011741585
000060 83 aa 28 3b c4 0b 3d bc 5c 34 4e bc 3a 60 3f bc
       0.0025736399 -0.01153845 -0.012585726 -0.011680657
000070 70 07 63 3c 92 4d 40 bc 97 cd 18 3c 7f 05 59 3c
       0.013856754 -0.011737244 0.00932636 0.013245939
000080 49 f1 09 bb ae 84 64 bc 92 a4 cf 3b 64 41 05 3c
       -0.0021048358 -0.013947649 0.006336757 0.008133266
000090 cc 52 7e 3c c5 c7 dc 3b 52 95 80 3c ee 13 59 3c
       0.01552267 0.0067376816 0.015696201 0.0132493805
0000a0 56 c9 5d bc 64 51 b1 bb 1e 19 0f 3c 80 4b 8b 3c
       -0.013536772 -0.005411314 0.008734016 0.017003775
0000b0 2c 2c 82 3c c4 2b 63 3c 36 59 11 bc 42 ba 3e 3c
       0.015890203 0.013865415 -0.008871367 0.011641087
0000c0 c0 0c 2c bc ae a2 50 3c 97 eb 64 bc b8 4d 12 bc
       -0.010501087 0.012734098 -0.013972185 -0.008929662
0000d0 dc fb 0a 3c fe 92 e4 ba a2 cf 62 3c 26 a0 0d bc
       0.0084828995 -0.0017438827 0.013843449 -0.008644139
0000e0 0e fe 8b bc c5 5e 5b bc 80 16 8e bc 4a 69 40 3c
       -0.017088916 -0.013389294 -0.017344713 0.011743853
0000f0 df 28 07 bc 72 93 5f 3c ba d5 36 3b 6b 9a 0a bc
       -0.0082494905 0.013645994 0.0027898387 -0.008459668

network.1.running_mean f4 [64]
000000 9e 0c cc 3d c0 87 5b bc aa 5c d3 bc 21 ec b0 3d
       0.09963344 -0.013399065 -0.025801022 0.08638788
000010 1f 8f 53 be a3 6b 90 be bc 0a 08 3e 4c 43 17 bd
       -0.20660065 -0.2820712 0.13285345 -0.036929414
000020 49 e1 79 bc 60 49 94 be f2 2e 96 bd b9 7d a6 3c
       -0.015251466 -0.2896223 -0.07333173 0.020323621
000030 74 2d e9 bd 00 6e 1d bd 3a 51 b1 bc 64 3d 72 3e
       -0.113856226 -0.038434982 -0.021645177 0.23656231
000040 3c 75 59 3e 8d 9c e0 bc 62 68 e4 bc 00 96 31 3c
       0.21236128 -0.0274184 -0.027881805 0.010838985
000050 f4 3c 85 3e 56 ea 89 3d 31 39 ae 3d 78 83 66 3e
       0.26023066 0.06734149 0.08507002 0.22511089
000060 7a 3d fc 3c 98 d1 a8 3d 48 0c fe bc 2d e2 19 bd
       0.030791033 0.08243102 -0.031011716 -0.037569214
000070 8c 45 51 be 02 6b 20 bd b8 2c 39 3d dc 3c 1d 3d
       -0.20436686 -0.03916455 0.045208663 0.03838812
000080 b6 ad 15 3e 86 7e 19 be fe c9 a6 3d 58 aa ee 3c
       0.14617047 -0.14989671 0.08143996 0.02913396
000090 92 df 63 3e fa 0b 8b 3e 2b 91 0a be 38 12 23 be
       0.22253254 0.27157575 -0.1353194 -0.15924919
0000a0 56 83 09 be 54 f2 2c be 5d 24 3e 3e cc ef 1b 3d
       -0.13429007 -0.16889316 0.18568559 0.038070485
0000b0 4b 1d 86 3e 16 87 07 3d 0c 1c 2e 3c 2d 43 9c bd
       0.26194224 0.033087812 0.010626804 -0.0763
0000c0 85 a1 6c be 2c 02 98 3d fc 89 1b be 2e 68 c8 bd
       -0.2310849 0.07422289 -0.15189356 -0.09785496
0000d0 00 30 5d be fe 07 80 ba e0 7e 9c 3e f5 a2 a3 3b
       -0.21600342 -0.0009768007 0.30565548 0.004993791
0000e0 16 33 3c 3e 2e a4 87 be 96 70 d3 3d cf 67 55 be
       0.18378863 -0.26492447 0.103242084 -0.20840381
0000f0 78 8a 2f bd d5 a7 34 be 47 65 8b 3c 5e 71 63 be
       -0.042856663 -0.17642148 0.017016066 -0.22211215

network.1.running_var f4 [64]
000000 4e 70 5a 3e 32 ca 59 3e bb 4e 4e 3e fe b2 f3 3e
       0.21331903 0.21268538 0.20147221 0.47597498
000010 b7 1e 32 3e d3 53 42 3e 50 eb 2f 3e 22 62 7a 3e
       0.1739453 0.18977289 0.17179608 0.24451497
000020 d6 46 1b 3e 63 d7 d3 3e 1c eb 11 3e be ad 68 3e
       0.1516374 0.41375265 0.14249843 0.22722527
000030 0b 33 47 3e 5e 5a 6b 3e ec 89 5a 3e 6c 25 1f 3e
       0.19453065 0.22983691 0.21341676 0.15541619
000040 98 ce 1b 3e b0 cd e9 3e de 90 54 3e 73 89 87 3e
       0.15215528 0.4566474 0.20758387 0.26472053
000050 8a 18 3e 3e 55 4d d2 3d 0a 02 5c 3e 7c b8 91 3e
       0.18564048 0.10268656 0.21485153 0.28461063
000060 50 fe 85 3e bd 16 29 3e cc ac 45 3e f2 ed 83 3e
       0.26170588 0.1651258 0.19304198 0.25767475
000070 33 ea 6d 3e 2a ae 86 3e 54 35 fc 3d 70 a6 45 3e
       0.23233871 0.26304752 0.12314859 0.19301772
000080 82 c0 f0 3d 81 fc d5 3e 51 3e 75 3e c8 b1 14 3e
       0.11755468 0.41794208 0.23949553 0.14520943
000090 d4 d5 d1 3e 9e 78 65 3e 62 5b 10 3e a0 a3 68 3e
       0.4098345 0.22409293 0.1409736 0.22718668
0000a0 6c 75 69 3e 16 b6 2a 3e 50 a2 39 3e 17 e0 02 3e
       0.22798699 0.16671023 0.18128324 0.12780796
0000b0 ea 20 17 3e 62 01 dc 3d ca 42 6f 3e 46 31 db 3e
       0.1475865 0.10742451 0.23365322 0.4281103
0000c0 6a 82 e9 3d 5f 53 95 3e ee 32 79 3e 9c 28 e1 3e
       0.11401828 0.2916517 0.24335834 0.43976295
0000d0 58 68 7c 3e f8 37 4e 3e 14 92 6c 3e ee 3a ce 3e
       0.24649179 0.20138538 0.231026 0.40279335
0000e0 24 fc 89 3e 06 b2 35 3e 10 cd 50 3e 5e 6e 35 3e
       0.2695018 0.17743692 0.20390725 0.17717883
0000f0 92 c9 51 3e 3c 55 45 3e 70 32 3c 3e 0e 59 a8 3e
       0.20487049 0.19270796 0.18378615 0.32880443

network.4.weight f4 [32, 64]
000000 a9 32 93 3c ee 5b 8e bd 9f 9f 13 bd 92 71 b4 bd
       0.017968493 -0.06951128 -0.0360409 -0.08810724
000010 16 c2 a7 bc aa 84 a0 bd 95 70 81 3c 13 4b bd 3c
       -0.02047829 -0.07837804 0.015800754 0.023107087
000020 88 42 1f 3d e8 54 33 bd ac 44 97 bd 96 7a 63 bd
       0.03888181 -0.043782145 -0.07386145 -0.05553683
000030 60 5b 65 3d ce b7 6f bb 94 12 0f 3d 5c ec 0c 3c
       0.055995345 -0.0036578062 0.034929827 0.008601274
000040 72 15 73 3c 9e 9f aa 3d 07 0f 2a 3d 2c 02 9b bd
       0.014836656 0.08331226 0.041518237 -0.075687736
000050 32 96 9d bd ab 59 e1 bd 41 18 fb bb 30 0b 51 3d
       -0.07694663 -0.11003431 -0.0076628034 0.05103606
000060 3c ac 1c 3d 96 8d eb 3c 7a 25 8a bc 16 ad 57 3d
       0.038250193 0.028754037 -0.016863573 0.052655302
000070 a4 de 56 3c 67 6a 0f bd a0 fa 6e 3c ab 3d bb 3d
       0.013114605 -0.035013583 0.014586121 0.091426216
000080 76 26 5e 3c 96 1e c7 bd 2f 70 b6 bc 46 f1 8b 3d
       0.0135589745 -0.09722631 -0.02227029 0.06833129
000090 de 93 97 3c 7a ff bd bd 12 76 a0 bc 5a ab 42 bc
       0.018503126 -0.09277244 -0.01958755 -0.011881674
0000a0 0d 5f e5 bc d7 2c 72 bd f6 c2 9c bb f5 93 05 3e
       -0.027999425 -0.059124794 -0.0047839833 0.13044722
0000b0 0c 08 3b bd af e7 86 3b d1 17 c6 bc 66 31 aa bc
       -0.04566197 0.0041169743 -0.024181278 -0.020775508
0000c0 1f 1b d3 bd c2 df 23 3d 9a 01 99 bc 90 e0 59 3d
       -0.10307907 0.040008314 -0.018677521 0.053192675
0000d0 ef 2e 7d bd 4e 26 9c bc a0 95 51 3b c0 f7 52 bd
       -0.061812337 -0.019061234 0.0031980053 -0.051505804
0000e0 48 45 f6 38 79 34 eb bc d2 ad 5b bc f2 12 04 3d
       0.00011743099 -0.028711544 -0.013408141 0.03224463
0000f0 8e 3f 2c 3b d8 d1 6a 3c 7f 09 e7 3d 0c 13 bd bb
       0.0026282999 0.014332257 0.11281108 -0.005770093
000100 0d 50 8e 3d 54 05 ca 3c 20 d8 07 bd 76 b9 96 3c
       0.06948862 0.024660744 -0.033165097 0.018398982
000110 e4 49 8a bc dd f7 ab b9 81 0d 20 3c a0 9d 87 bd
       -0.016880937 -0.00032800334 0.009768845 -0.066218615
000120 a2 dd 1c bc 9f 91 bd 3d 1b 16 cf bd 19 88 96 bd
       -0.009574326 0.09256291 -0.10111638 -0.07350177
000130 7a fd 5b bd 9d 93 72 bc 4a 32 3c bd 1c 69 24 bd
       -0.05370853 -0.014805702 -0.045946397 -0.040139303
000140 5c 8f 58 3d c0 97 b1 3c ee 58 84 3d 59 95 6c 3d
       0.052871093 0.021678805 0.064622745 0.057759617
000150 6f 6d 23 bd 2a e8 ec 3c 16 f2 bc bd 4a ee 13 bd
       -0.039899286 0.028919298 -0.09225862 -0.036115922
000160 70 97 e4 bb 38 9f a3 3d 94 6b 37 3c 4e 6b ca bd
       -0.0069760606 0.07989353 0.011195082 -0.09883748
000170 4d 7f 8c bd 04 fb 6b 3c b5 22 2e bc a5 d1 a6 bc
       -0.06860218 0.0144031085 -0.010628392 -0.020363638
000180 f4 06 19 3c 63 e8 89 bb 48 c2 98 3d a8 0c 62 3d
       0.009340037 -0.004208611 0.07458931 0.05518785
000190 9a ab 47 3d ba fd 43 3d 06 16 26 bc 7d f9 1b 3d
       0.048747636 0.047849394 -0.010137087 0.038079727
0001a0 10 e4 64 bd ae 15 a8 3c 5b 0b ea 3c 73 60 0d bd
       -0.05588156 0.02051815 0.028569868 -0.03451581
0001b0 e6 c5 51 3c 02 79 05 3c 70 b0 f6 3d e6 80 56 3d
       0.01280353 0.008146526 0.120453715 0.05236902
0001c0 f2 fe f2 3c 52 14 fc 3c fc 7a 7c 3d b4 ce da 3c
       0.029662583 0.030771408 0.061640725 0.026709892
0001d0 71 5f 13 3c 78 fe 98 bd fc ee 21 bd 74 fe 3b bc
       0.008994923 -0.07470411 -0.039534554 -0.011474241
0001e0 c0 c1 02 bd 51 d0 e4 3b 78 80 60 bd db 27 97 bd
       -0.031923056 0.006982841 -0.054810017 -0.07380649
0001f0 e8 23 86 bc e8 2e 95 bd 07 f5 10 bd de 1a c1 3c
       -0.016374543 -0.07284337 -0.035389926 0.023572382
000200 06 c4 93 bd b0 97 9a bc e0 cf f8 bc 0e 94 a3 3d
       -0.07215123 -0.018871158 -0.03037256 0.079872236
000210 0d ab bc 3d 96 87 f3 3c 48 85 f3 bc 76 5c c4 bc
       0.09212313 0.029727738 -0.02972664 -0.02396987
000220 4a 69 0b bd 45 9e 67 3c 9e 36 42 3d 39 66 ec 3d
       -0.03403596 0.0141368555 0.04741537 0.11542935
000230 b8 6b 18 bd e7 3e 59 bd 46 e8 98 3d 4c 47 00 3d
       -0.037212104 -0.053038504 0.07466178 0.031317994
000240 3a 7c 95 3c 0e f6 2c bc 0c e9 05 bd 56 09 86 bc
       0.018247712 -0.010556711 -0.032692954 -0.016361874
000250 d6 6c 92 3d 64 2c da 3d 0a 14 21 3d f6 fa 07 bd
       0.07149665 0.10652998 0.03932575 -0.03319832
000260 d9 7c 13 bd 3a 38 15 bd e0 b7 b5 bb b4 40 d6 b8
       -0.036007736 -0.036430575 -0.0055456012 -0.00010216367
000270 bb e6 00 3d 64 b5 a8 3c b4 da 3e bd a8 0f d0 bb
       0.03147004 0.020594306 -0.04659529 -0.0063495226
000280 4d d6 c5 bb bb 23 89 3c c0 31 6f 3d 2e 93 34 bd
       -0.0060375095 0.01674067 0.058397055 -0.044085674
000290 fc 97 d4 bd b6 64 d4 bc 22 79 fc 3d 56 4a 0b 3d
       -0.10380551 -0.025926929 0.12327792 0.03400644
0002a0 ba da ce bb 34 1f 08 bc 4a f9 9f 3c 8d 81 c7 3c
       -0.0063126953 -0.008308221 0.01952805 0.024353767
0002b0 f1 cc 3d 3b 8a 21 9e bc 3e f7 38 3d 3f 5c b5 3d
       0.0028961266 -0.019303102 0.045157664 0.08855485
0002c0 1f 6e e8 bc 7f bd a2 bc 2c d5 1c 3c 31 c0 80 3d
       -0.028372822 -0.01986575 0.0095723085 0.062866576
0002d0 14 4c 99 3c 16 ec 1b 3d 61 d2 88 bd 4a 70 a9 3d
       0.018713035 0.038066946 -0.066807516 0.082733706
0002e0 b4 1c d1 bd 9d 2f d8 bd c0 1c 83 bd e5 b3 de bc
       -0.10210553 -0.105559565 -0.06401968 -0.02718539
0002f0 a8 7b 6a 3b f5 e3 4c 3c 44 44 a5 3c b0 fe aa 3d
       0.0035779271 0.012505521 0.020174153 0.08349359
000300 2e 11 37 bc d8 c4 dd bc 79 92 1f bd 7e 97 d3 bd
       -0.01117353 -0.027071401 -0.038958047 -0.10331629
000310 67 f1 62 3d 88 a6 82 bb 98 83 be bc 9b 00 94 bd
       0.055406 -0.003987137 -0.023256108 -0.07226678
000320 bf 1e 6b 3c 6a 04 8b 3c b6 4f a9 bb 16 34 28 3c
       0.014350592 0.016969878 -0.005166973 0.0102663245
000330 11 e6 d4 bb 5a 55 4b 3d 32 1f d4 3b 97 f6 c2 3c
       -0.0064971526 0.049641944 0.0064734453 0.023799224
000340 78 b3 a8 3d 95 02 5b bc a0 57 ad 3c 98 13 24 3d
       0.08237356 -0.013367315 0.021159947 0.04005775
000350 61 95 52 3d a0 cc 4b 3c 5d a0 68 bc da f6 62 3d
       0.05141199 0.012438923 -0.01419839 0.055411197
000360 3c 0c 04 3c 32 30 1a bd 1a a4 8c 3d 60 73 47 3d
       0.0080595575 -0.03764362 0.068672374 0.048694015
000370 1c 1f 8d bc c4 94 39 bc f2 9d 31 bd b1 06 b9 bd
       -0.017226748 -0.011326972 -0.04336352 -0.090344794
000380 44 ce 1a 3b b8 29 ad bd dc 39 4e 3d fe 8d 88 3d
       0.002362148 -0.08455223 0.050348148 0.06667708
000390 ce 52 7a 3d 6a ed e4 3c fe c5 c7 bc ad 12 d8 bb
       0.061114125 0.02794524 -0.024386402 -0.006594023
0003a0 94 29 02 be 8e 9d 03 bd f4 49 f6 3c 78 bf cb 3d
       -0.12711173 -0.032132678 0.03006456 0.09948629
0003b0 ac 82 12 bd ab 84 d5 ba 58 c1 83 bc 40 af 66 bd
       -0.03576915 -0.0016290148 -0.016083404 -0.056319475
0003c0 76 8d 80 bd 33 14 db bc 21 b6 68 bd 55 85 80 bd
       -0.062769815 -0.02674303 -0.056814317 -0.06275431
0003d0 85 ec 4d 3d a0 68 8a bb 70 e2 0c 3d e0 cb 71 3d
       0.05027439 -0.004223898 0.034395635 0.05903232
0003e0 4b fb 52 3d 0f b7 26 3d ce dd 4c bb 46 e9 5e 3d
       0.051509183 0.040701922 -0.0031260136 0.054421686
0003f0 15 2c 8c bd 94 20 a3 3d ef 97 cb 3c 48 0d 6f bd
       -0.068443455 0.07965198 0.024852721 -0.058362275

network.4.bias f4 [32]
000000 b7 d6 25 3d 79 aa 83 3d e8 cf b7 bc 9e 36 56 bd
       0.04048797 0.064289995 -0.022438005 -0.05229818
000010 a2 3d 98 3b 6b 8f 86 bc 5c 2d 05 3d 8c b0 6d 3c
       0.004646019 -0.016425809 0.03251396 0.014507424
000020 ef 0a bd bd 45 b1 d4 bb fe ce e6 bc 6a d7 15 bd
       -0.09230601 -0.0064908587 -0.028174873 -0.036582388
000030 5b df 11 bc 74 82 75 3c 4f af e2 3c 50 14 40 b9
       -0.00890335 0.014984716 0.027671484 -0.00018318114
000040 62 b5 d2 bd 92 d6 87 3d 59 55 0a 3d ff e7 98 bd
       -0.10288502 0.06632723 0.0337728 -0.07466125
000050 5c 32 38 3d e7 7e 2e bd a8 fc 05 3d 0d a4 da bc
       0.0449699 -0.042601492 0.032711655 -0.026689554
000060 0d de fc bc 97 af 00 b9 96 c9 39 3d d8 bb 77 b8
       -0.0308676 -0.00012272444 0.045358263 -5.9064332e-05
000070 d8 92 8c bb 47 cb 31 3c 00 08 b0 bd b1 e5 9c 3d
       -0.004289966 0.010851688 -0.08595276 0.07660998

network.5.weight f4 [32]
000000 70 b5 81 3f ae 35 7c 3f 64 aa 81 3f 43 5c 81 3f
       1.0133495 0.9851941 1.0130124 1.0106281
000010 a8 df 7c 3f 4e f8 7e 3f 7c 68 81 3f 0c a8 80 3f
       0.9877877 0.9959763 1.0110011 1.0051284
000020 8e 05 81 3f de 3c 82 3f 0d 89 80 3f 9e 86 7e 3f
       1.007982 1.0174825 1.0041825 0.9942416
000030 f7 c1 81 3f 62 47 81 3f 24 02 80 3f 0f 82 81 3f
       1.0137318 1.0099909 1.0000653 1.0117816
000040 2c 9d 80 3f 89 2a 81 3f 5e 5f 7d 3f f0 80 81 3f
       1.0047965 1.0091106 0.98973644 1.0117474
000050 6a a2 7e 3f 15 7d 80 3f 6e 28 81 3f 35 aa 81 3f
       0.99466574 1.0038172 1.0090463 1.0130068
000060 2a 9f 7f 3f e0 9a 7b 3f 2a cc 81 3f e4 40 7e 3f
       0.9985224 0.98283195 1.0140431 0.99317765
000070 3c 91 7f 3f ec e8 7e 3f 44 6c 80 3f 14 3b 82 3f
       0.99830985 0.9957416 1.003304 1.0174279

network.5.bias f4 [32]
000000 40 bf 65 3c fa 3e 1c bc c0 36 5b 3c 21 c4 86 3c
       0.014022648 -0.009536499 0.013379753 0.016450943
000010 2e 00 87 bb 98 f1 0b bc 32 2b 1f 3c ba 46 23 3c
       -0.0041198945 -0.008541487 0.009714888 0.009965593
000020 f9 c3 67 3c 3f fd 8e 3c 0d 81 62 3c 15 cb 99 3b
       0.014145845 0.017454742 0.013824713 0.0046933987
000030 40 f9 1b 3c 68 b9 66 3c 34 2d 9a bb b8 c8 38 3c
       0.009519875 0.01408229 -0.0047050957 0.011278324
000040 0c b6 e9 3b 68 5a fd 3b 82 96 8a bc 83 8b 63 3c
       0.0071322974 0.0077317245 -0.01691747 0.013888243
000050 05 a7 5e 3b ea 41 14 3c 45 9c 1d 3c 6e 55 2d 3c
       0.0033974063 0.009048918 0.009619777 0.01057945
000060 c0 05 a5 bb 0d ad 86 bc 7e 10 64 3c a8 fa 5d bc
       -0.005036086 -0.016439939 0.013919948 -0.013548531
000070 0a 63 27 3c 10 a5 52 3a f4 34 9d 3b 1a 28 8f 3c
       0.010216484 0.00080354605 0.0047975723 0.017475177

network.5.running_mean f4 [32]
000000 82 f6 bf bd 05 db 38 3d 04 ec f8 3c a1 4f 05 bd
       -0.093731895 0.04513075 0.030385979 -0.032546643
000010 ee b6 e1 3d 1d c7 57 bd 36 1b 94 3b c4 15 45 bd
       0.11021219 -0.052680124 0.0045198454 -0.04811646
000020 86 1c 24 be 7c 5b 1a 3e a6 b1 17 bd 3a 7d 06 bd
       -0.16026506 0.15073961 -0.037034653 -0.03283427
000030 ee e4 b4 bd 3f 81 13 be 2a 85 0f 3e e1 0d 13 3e
       -0.088327274 -0.14404772 0.14015642 0.14360763
000040 8c 5b 45 3c 93 4b 27 3e 4f fc 1a be 0e e5 34 be
       0.012045752 0.16337423 -0.1513531 -0.17665502
000050 ca be be 3c 0d fe d2 bd aa d5 41 bd 88 7e 02 bd
       0.023284335 -0.103023626 -0.047322907 -0.03185895
000060 e5 5e ac bd 06 d4 94 3a 71 5f 8d 3c b8 e3 0d 3e
       -0.08416537 0.0011354692 0.017257424 0.13856399
000070 3a d4 09 3e 88 71 a9 bd 20 b0 81 bd 10 a9 57 3e
       0.13459864 -0.082736075 -0.06332421 0.21060586

network.5.running_var f4 [32]
000000 c8 c5 46 3e e4 d5 24 3e ca bf 2f 3e 9e a1 67 3e
       0.19411385 0.16097218 0.17163005 0.22620246
000010 3e ea 19 3e 80 69 20 3e a4 b2 2d 3e 5e b2 0f 3e
       0.15030763 0.15665245 0.16962677 0.14032885
000020 0f a0 46 3e 0e 76 92 3e 54 02 1c 3e 8a 67 0e 3e
       0.19396995 0.28605694 0.15235263 0.13906685
000030 1b 47 60 3e d4 a5 3d 3e 43 32 84 3e e8 31 68 3e
       0.21902125 0.1852029 0.25819597 0.22675288
000040 e0 e5 40 3e 18 7f 64 3e 33 2d 4c 3e ff 7f 17 3e
       0.1883769 0.22314107 0.19939117 0.1479492
000050 9e f2 40 3e 06 08 2c 3e c7 51 2d 3e 5a 5b 40 3e
       0.18842551 0.16799936 0.16925727 0.18784848
000060 2c c6 64 3e 6b 71 37 3e 53 8a 3d 3e 25 95 7a 3e
       0.22341222 0.1791436 0.18509798 0.24470957
000070 9b 94 8c 3e 4d 7d 66 3e 7b a8 45 3e 75 f2 2b 3e
       0.27457127 0.22508736 0.19302551 0.16791709

network.8.weight f4 [16, 32]
000000 be 6d f4 3c 52 9b 03 3c a5 32 c7 bd bd 60 fe 3d
       0.029837485 0.008032637 -0.097264566 0.12420795
000010 f6 12 ed 3d 7b 9b 91 3c ee 1a ba 3a 66 15 9b 3d
       0.11575882 0.017774334 0.00141987 0.07572441
000020 b5 34 ae 3c a6 4e 23 be 94 4e 1e bc 6e 1e 05 3b
       0.021265367 -0.15947971 -0.009662289 0.0020312327
000030 a0 1f e2 bd 8e d3 65 3d 98 ad 86 bc 02 39 7e bc
       -0.11041188 0.056109957 -0.016440198 -0.015516521
000040 b8 f6 12 3d 18 33 47 3d d8 32 ab bd 3d d8 14 3e
       0.03587982 0.04863271 -0.08359307 0.14535613
000050 8c 85 7e bd ed 24 a2 bd 6c 2e 1d 3e 46 f3 e4 bc
       -0.06213908 -0.07917199 0.1534974 -0.027948033
000060 50 41 87 bd ce b0 c6 bc 4e 0c a3 bd 61 8b 90 3d
       -0.06604254 -0.024254229 -0.07961331 0.070578344
000070 fc 67 07 3e ab e7 90 bc a8 eb f1 3d 96 0c 90 3c
       0.1322326 -0.017688593 0.11812526 0.017584126
000080 e0 0a e6 bd 1c 8b 56 bc 01 38 20 3e cf 1a e3 3b
       -0.11232543 -0.01309469 0.15646364 0.006930686
000090 7b de 8f 3d 26 66 b4 3d 58 e6 c8 3d 6e 92 20 bc
       0.07024857 0.08808546 0.098095596 -0.009800537
0000a0 1e c3 61 bc 7c ee 3e 3e cb b9 cd bc de f4 e6 3c
       -0.01377943 0.18645662 -0.025113007 0.028192934
0000b0 a0 c7 c7 bd fe 26 32 3d ed d0 be 3c dc af 88 bd
       -0.09754872 0.043494217 0.023292983 -0.066741675
0000c0 5c a6 7f 3c bf b4 e5 bd ec 01 76 bd 7c 27 bc bc
       0.015603628 -0.11216115 -0.060060427 -0.022968046
0000d0 4a 9f 09 bd 78 4f 04 be 4a 14 2c 3d 2e dd 2c 3d
       -0.033599176 -0.1292094 0.042011537 0.04220312
0000e0 1c 63 b1 bd a1 5f 85 3d bd 12 3f 3c 5f 28 bd bd
       -0.08661482 0.065123804 0.011662182 -0.09236216
0000f0 ea 78 33 3d 62 e6 79 bc 64 b3 b8 3d 98 b8 40 3d
       0.043816485 -0.015252681 0.09018591 0.047051042
000100 82 a2 e2 3d fd b1 8e 3d 9d bb 98 3d da b1 06 be
       0.11066152 0.06967542 0.074576594 -0.13153782
000110 f6 1f 93 bb 98 68 3f bc ac 0d a2 bd 60 89 d4 bc
       -0.004489894 -0.011682652 -0.07912764 -0.025944412
000120 51 2b 00 be 9e da 49 3c 5f aa e1 bd 68 f1 4a bd
       -0.12516524 0.012320189 -0.11018824 -0.04954663
000130 1a 07 72 3d ce b5 7b bd 9c 7f bc bc 20 0c 26 bc
       0.059088804 -0.06145268 -0.023010068 -0.010134727
000140 c3 96 ca bd be b7 e8 bd f1 be 2a 3d f3 4e 04 bd
       -0.09892037 -0.11363171 0.041686002 -0.032301854
000150 ac 02 a5 bc 84 6f 01 3d 76 3a 05 3e 5e 64 1f bd
       -0.020142876 0.03160049 0.13010582 -0.038914077
000160 80 d8 35 3d fc 29 a7 3b 78 94 9b 3a ce 66 4d bd
       0.044395924 0.0051014405 0.0011869809 -0.05014687
000170 d2 ad bc bc bb dc 6a 3d 68 52 13 3c 48 9f eb bc
       -0.023032103 0.05733941 0.008991815 -0.028762475
000180 7c 1c 0f bb 40 aa fb 3d 7f 5a b0 bc 03 4a dd bc
       -0.0021837046 0.12288332 -0.021527527 -0.02701283
000190 a0 f7 ca bc ba 71 96 bd 31 bc cb 3d c0 b0 c8 bd
       -0.02477628 -0.0734591 0.09948004 -0.097993374
0001a0 ed d7 91 3c 3c c6 15 b9 08 7c d6 bc c8 4f e9 bd
       0.017803157 -0.00014283595 -0.02618219 -0.1139217
0001b0 a4 9f bc 3b df 1f 02 be 50 4d 84 ba 4b 1d 82 bd
       0.0057563353 -0.1270747 -0.0010093842 -0.063532434
0001c0 0b da 70 3d 62 0c ee 3c 65 f4 3a 3c 20 47 2a bd
       0.058801692 0.029058639 0.011410807 -0.041571736
0001d0 f7 e2 d7 3c 8e c1 ef bb 86 d6 07 3e 3f b8 dd 3d
       0.026353342 -0.0073167747 0.13265428 0.10826158
0001e0 80 6c 1b 36 30 fc cd bd a0 a4 79 3d c9 b9 98 bd
       2.3159955e-06 -0.100578666 0.060948014 -0.07457311
0001f0 32 1f e2 bc c0 c4 91 bd 6c ab fc bc 19 30 8c bd
       -0.027602766 -0.07117605 -0.03084346 -0.068451114
000200 28 64 0c 3d 88 62 9c bc 46 5c 87 bd 88 f8 29 3d
       0.034275204 -0.019089952 -0.06609397 0.041496783
000210 dc f9 98 3d 77 1a 29 3d 24 95 cd 3d 88 2c a7 3d
       0.07469532 0.041285004 0.10038212 0.081627905
000220 ec c4 8a bd 1c 30 4e bd 97 6b b5 bd f1 e7 04 3e
       -0.06775841 -0.05033885 -0.08858412 0.12979104
000230 52 49 d1 bd e8 e1 cd bd 04 f6 8f bd ae ea c5 3d
       -0.10219063 -0.10052854 -0.07029346 0.09663902
000240 20 b8 70 bb c0 ea 9b bd 0d 59 4c bc 34 44 39 bd
       -0.003673084 -0.076131344 -0.012472403 -0.04523106
000250 30 d7 46 3d 38 95 10 3e fc 6b 99 bc 41 24 06 be
       0.048545063 0.14119422 -0.018728249 -0.13099767
000260 70 7e 8b bb 86 9d 3f 3c aa f9 ca bd f0 bd 9c bb
       -0.004257016 0.011695271 -0.09910901 -0.0047833845
000270 c7 1c a7 bc ba 18 b1 3d 48 3b 91 bd 02 2e 66 bc
       -0.020399464 0.08647294 -0.07091385 -0.014049055
000280 80 ce b7 3c cc de 3c 3d 80 af 19 3e a6 eb 1a be
       0.022437334 0.046110913 0.15008354 -0.15128955
000290 9e 0b 84 bd b6 ee c0 bd f0 30 9b bd a4 8a 47 bd
       -0.06447528 -0.094205305 -0.075776935 -0.048716202
0002a0 f4 1b cd 3c 47 f2 cf 3a 1e 8b fb bd 18 a2 c7 3d
       0.025037743 0.0015865051 -0.12282394 0.09747714
0002b0 ed 14 5d 3d 06 86 0d bd 32 86 91 bd 8e 29 7e ba
       0.053975035 -0.034551643 -0.07105674 -0.0009695523
0002c0 52 47 9d bd 9c 32 06 bd a0 d4 72 bb 2b 9e 01 bd
       -0.07679619 -0.03276311 -0.0037053004 -0.03164498
0002d0 d0 eb d2 3c dc 40 5b 3d d8 0f ed 3c 96 cc 5a 3c
       0.02574721 0.05352865 0.028938219 0.013354441
0002e0 40 db 87 bd ee 00 08 3e 1e 7e 36 3d 12 5a c0 bc
       -0.066336155 0.13281605 0.04455387 -0.023480449
0002f0 ce a5 8a 3d b9 17 e9 bc 54 ad 22 bd 2c bc f3 3d
       0.06769906 -0.028453695 -0.03971608 0.11901125
000300 f5 b8 b6 3d 8c fc 9a bc d6 2a 8c 3d 1e c5 a6 bc
       0.089219965 -0.018919252 0.06844108 -0.020357665
000310 0e 90 55 3d dc 88 33 3e 78 2a 73 3d 2e 3a 2f bc
       0.052139334 0.17532676 0.059366673 -0.010695023
000320 2e b6 08 bd 96 26 7f 3d ee ff 07 3e f5 ae 24 3d
       -0.033376865 0.062292658 0.13281223 0.040205915
000330 62 55 04 3e 3e a4 b3 3c c0 ca c6 3d 18 08 0b 3d
       0.12923196 0.021928903 0.0970664 0.033943266
000340 4c 5a b0 bc f2 b9 21 be 76 d2 99 3d 68 5f f5 bd
       -0.021527432 -0.15793589 0.07510845 -0.11981088
000350 3c 6e 7d 3d f8 0e 7d bc fd 70 0e bd 54 7d d6 bb
       0.061872706 -0.015445463 -0.034775723 -0.006545702
000360 70 6f 01 3e 66 b9 3d bd 44 5c 0f 3c 46 6a f4 3b
       0.12640166 -0.046319388 0.008750025 0.007458958
000370 b4 c3 55 3d a3 db a6 ba 5a a2 95 bc c4 fe b0 bd
       0.05218859 -0.0012730252 -0.018265892 -0.08642343
000380 c4 3f b8 bd 16 a9 21 bd b8 08 3f 3d 04 94 ba bd
       -0.08996537 -0.039467894 0.046639174 -0.09110263
000390 2a f1 23 bc 8e 4f cc bc 76 05 64 3d 50 df 4e 3d
       -0.010006228 -0.024940278 0.05566927 0.050505936
0003a0 24 54 1e 3c 50 cb 01 3d 04 16 c0 bc d8 6c 84 3d
       0.009663615 0.031688035 -0.023447998 0.06466073
0003b0 ff b6 98 3d fc 37 9a bc c2 5c 73 bd 0b 0d 51 bd
       0.07456779 -0.018825524 -0.059414633 -0.05103783
0003c0 0c 33 be 3c ee 7d 62 3c 18 62 10 3e 7e 00 c0 bc
       0.0232177 0.013823969 0.1409992 -0.023437735
0003d0 3b fd 0a bd c4 44 56 3d 76 83 b4 bc 54 27 c6 3c
       -0.033932906 0.052311674 -0.022035342 0.024188675
0003e0 5e ca da 3d e9 9e 13 bd e8 0a ea 3d ba 70 4f 3b
       0.1068313 -0.03604022 0.114278615 0.0031652884
0003f0 70 c5 3b 3d 34 b1 8d bc 82 ab 84 bc c7 60 36 3e
       0.045842588 -0.017296411 -0.016195063 0.17810355

network.8.bias f4 [16]
000000 06 58 e3 3a 44 c3 70 3d 9e 86 97 3d 69 5a 86 bd
       0.0017344959 0.05877997 0.07398723 -0.06560213
000010 d8 13 17 3e 07 73 9e ba 08 49 44 bd 30 c4 2b 3d
       0.14753664 -0.0012088724 -0.04792121 0.041935146
000020 8c a1 8c 3c 80 1b d4 3c 1e cd 96 bb 22 59 9d bd
       0.017166875 0.02589202 -0.0046020886 -0.07683016
000030 a1 f3 a2 3d 4e 36 f5 3d 0c 4f b8 bc a4 d9 5b bc
       0.07956625 0.119732484 -0.02249863 -0.013418589

network.10.weight f4 [1, 16]
000000 24 08 0b 3e f8 53 3b bd cc 68 72 bc 7a 36 0d bd
       0.13577324 -0.045734376 -0.014795493 -0.03447578
000010 e3 83 c6 3d a1 d3 29 bd cc e8 8e bd e6 44 32 bd
       0.09693124 -0.04146159 -0.06977996 -0.043522738
000020 b0 aa 80 bd ce 66 fa 3d d6 9d 50 3e c4 6d 98 bd
       -0.06282556 0.1222664 0.2037271 -0.07442811
000030 aa 6e 92 bc 6e 9e 57 bd 3c 7c 13 be 30 21 fb 3d
       -0.017875034 -0.052641325 -0.1440286 0.122621894
