Bank-1/global_model.pth (torch, 3537 bytes, 5 tensors)

layer1.weight f4 [10, 7]
000000 90 df 30 be 42 54 b7 3e 7e 5e e7 3d 76 b9 9a be
       -0.17272782 0.3580647 0.1129732 -0.3021962
000010 66 8e 8c be 3c 06 10 3e 66 b7 fc bd c0 44 7a 3e
       -0.2745239 0.14064878 -0.12339668 0.24440289
000020 29 ee 00 be 80 d4 00 bd b8 76 99 be 70 67 86 3c
       -0.12590851 -0.031452656 -0.29973388 0.016406745
000030 f0 63 20 be fc d5 a7 be 8a 72 a3 3e 77 90 ad bc
       -0.15663123 -0.32780445 0.31923324 -0.02118705
000040 72 e5 f8 3d 16 40 4f bd 50 f7 0b bd e6 0b 93 3e
       0.12153138 -0.050598226 -0.034171402 0.28720015
000050 a4 9f 9e be b2 d5 b0 3e e4 fd c0 3e 68 3c 18 be
       -0.3098117 0.34538037 0.37693703 -0.14866793
000060 a4 d7 7b be 7e 21 49 bd 3a b2 95 3e ff 13 4e 3e
       -0.24593979 -0.049104206 0.2923754 0.20124815
000070 6d 6f 50 3e ac 74 b0 3e 88 6f b2 bd 19 75 e0 3d
       0.20355006 0.34464014 -0.08712679 0.109598346
000080 1c 67 b9 bd 68 5f 5b 3d 9a e9 95 3e 2a e0 c5 3e
       -0.0905287 0.053557783 0.29279786 0.38647586
000090 57 12 f3 bd d3 45 2b bd 71 8c a3 bc 2c 1c ca bd
       -0.118687324 -0.041814636 -0.019964429 -0.098686546
0000a0 9d 72 55 be 91 6d ad 3e 9c c3 f1 3d a8 8d 27 be
       -0.20844503 0.33872655 0.11804888 -0.16362631
0000b0 76 56 a2 bc 40 02 a1 3e 7a d1 25 be 86 8d a8 3e
       -0.019816618 0.3144703 -0.1619319 0.32920474
0000c0 a0 6f f4 3d fa b5 0d be 47 68 ef bd e2 5e b6 3d
       0.11935353 -0.1383895 -0.11689811 0.08904816
0000d0 12 97 47 3e 74 00 ef bc 3c 53 a4 3d 2a 11 82 be
       0.19491223 -0.02917502 0.08023688 -0.2540372
0000e0 27 d9 89 bc 6f 4e 5a 3d 5c f0 95 be a9 c4 25 be
       -0.01682718 0.053297456 -0.29284942 -0.16188301
0000f0 7b 35 90 be 26 73 8f 3e b0 8c e8 3a 36 fb a5 bd
       -0.28165802 0.2801754 0.0017742123 -0.08104555
000100 d2 ed a9 bd e6 b7 b5 be 86 05 95 3e 1e 30 92 be
       -0.08297314 -0.35491866 0.29105777 -0.28552336
000110 2e d7 99 3d 1a 56 ee 3d
       0.075117454 0.11637516

layer1.bias f4 [10]
000000 04 01 59 be c2 cd 98 3e 39 d0 8d 3e a4 52 97 3e
       -0.21191794 0.2984448 0.27697924 0.29555237
000010 89 53 a1 be 6a 5f 20 be 9a b6 ef bd 3e ac 40 be
       -0.31509045 -0.15661398 -0.1170475 -0.18815705
000020 c8 1a a8 be 51 86 9d bb
       -0.32832932 -0.0048072715

layer2.weight f4 [5, 10]
000000 f4 e7 f0 3d 62 bd 25 3e bd 22 84 bd 2c ce 90 be
       0.117629915 0.16185525 -0.06451938 -0.28282297
000010 6f c6 6a be ae 21 18 be 6f 6a f2 bc 04 8e 8e 3e
       -0.22927259 -0.14856598 -0.029591767 0.27842724
000020 d6 99 8f 3c 49 d3 57 3e 58 60 de 3c 42 93 1d be
       0.01752941 0.21076693 0.02714555 -0.15388206
000030 32 99 3a 3d 46 08 30 be c6 b5 c2 bd 8a fd ab bd
       0.045556255 -0.17190656 -0.09507327 -0.08397968
000040 14 bf 10 3e 99 2b 0f be ad 67 85 be c2 52 90 3e
       0.1413539 -0.13981475 -0.2605566 0.2818814
000050 e3 f6 83 bc 04 75 8f 3e a6 77 51 bd 3c 78 44 3e
       -0.016108936 0.28018963 -0.051139496 0.19186491
000060 03 d4 b3 bc 4d 2b 90 3e 32 0c 87 bc 98 61 19 be
       -0.021951681 0.28158036 -0.016485307 -0.14978635
000070 fc 86 0d 3e 62 d7 4d bc 85 41 a4 3e d3 e4 59 be
       0.13821024 -0.012563558 0.32081237 -0.21278696
000080 de f8 55 be a0 f3 5c 3c 44 1b 2a 3e 3c 4b 6c 3e
       -0.20895717 0.013485819 0.16611964 0.23075575
000090 ca 22 3a 3e fd 98 bd bd 19 ae 01 be 80 c1 36 3e
       0.18177333 -0.09257696 -0.12664069 0.17847252
0000a0 f1 ba 70 3c 8a 23 9a 3e d8 90 8d 3d 0c 11 2a bc
       0.014693008 0.3010524 0.069123924 -0.010380041
0000b0 c4 14 d9 3d b2 e7 4b be 08 20 84 be ce 3f 04 bd
       0.10599664 -0.19912603 -0.25805688 -0.03228741
0000c0 ec 9e 1d be d0 a5 5f 3d
       -0.15392655 0.05460149

layer2.bias f4 [5]
000000 86 ef 7f 3e 6f 3c 8f 3e a9 10 7e 3e e6 a7 89 3e
       0.24993715 0.27975795 0.24811043 0.2688591
000010 60 7d b9 3d
       0.090571165

layer3.weight f4 [1, 5]
000000 be bb bd be f2 50 89 be 13 f7 1a bc dc 34 07 3e
       -0.37057298 -0.2681957 -0.009458321 0.13203758
000010 7c 35 f2 3d
       0.118266076
